model.pt (torch, 904360 bytes, 8 tensors)

weight f4 [32, 1, 3, 3]
0	0xbd5f6d33	-0.0545475
1	0x3def1883	0.11674597
2	0xbe8817cf	-0.26580665
3	0x3e99d40a	0.30044585
4	0x3c386efc	0.0112569295
5	0xbf1c2fa0	-0.6101017
6	0x3ef6f2c1	0.48232082
7	0x3c2f9e82	0.010718944
8	0xbe239714	-0.159756
9	0xbf0fac4d	-0.56122285
10	0xbe61e432	-0.22059706
11	0x3e800871	0.2500644
12	0xbf058eb2	-0.5217086
13	0x3eca8d60	0.39560986
14	0x3ecd952c	0.40152872
15	0xbd75d388	-0.060016185
16	0x3da7380e	0.081649885
17	0xbd5dc751	-0.05414516
18	0x3efdfe01	0.49607852
19	0x3d3e2747	0.046424177
20	0xbea7a188	-0.32740426
21	0x3c594460	0.013260931
22	0xbe784ada	-0.24247304
23	0xbf0c0826	-0.54699934
24	0x3e83f819	0.2577522
25	0xbf022fc1	-0.50854117
26	0xbd59e060	-0.053192496
27	0x3dc4f01c	0.0961611
28	0xbcf5c1aa	-0.029999573
29	0xbf031c5f	-0.51215166
30	0x3e8fd149	0.2808936
31	0x3e8684b8	0.2627313
32	0x3d7dfa5a	0.062006332
33	0x3da8b204	0.08237079
34	0x3e370575	0.17873175
35	0x3e656481	0.2240162
36	0xbee86518	-0.45389628
37	0xbdfb0cbc	-0.12258288
38	0x3e362feb	0.17791717
39	0x3dc5c40e	0.09656535
40	0x3ea9d0a3	0.3316699
41	0x3de7900e	0.11306773
42	0xbdeb06c8	-0.11475903
43	0x3e7bd8de	0.24594447
44	0xbe197913	-0.14987592
45	0x3dad5d03	0.08465006
46	0x3dc4f307	0.09616666
47	0x3e350329	0.17676987
48	0xbe6cc117	-0.23120533
49	0x3ec1e742	0.37871748
50	0xbe8824ee	-0.26590675
51	0x3e6fc43d	0.23414703
52	0x3ea52fbf	0.3226299
53	0xbe871539	-0.2638338
54	0x3eab00e9	0.33399132
55	0x3e06d015	0.13165314
56	0x3eb445db	0.35209545
57	0xbee4d4cc	-0.446936
58	0xbe930293	-0.287129
59	0xbea2ea5c	-0.31819427
60	0xbe9c49da	-0.30525094
61	0xbecdd74e	-0.40203327
62	0xbecae76e	-0.39629692
63	0xbe8d3552	-0.27579743
64	0xbe92e916	-0.28693455
65	0x3e0a1a23	0.13486533
66	0xbee4e891	-0.44708684
67	0x3f017577	0.5056986
68	0x3e7fcf3d	0.24981399
69	0x3cd270eb	0.02568861
70	0x3eca633e	0.3952884
71	0xbebf256f	-0.37333247
72	0xbe60cbdf	-0.2195277
73	0xbefd3327	-0.4945309
74	0xbeab1672	-0.33415562
75	0xbd9c4e4c	-0.076321214
76	0x3db7d761	0.08976627
77	0x3eeee8ca	0.4666198
78	0x3e4cebcc	0.20011824
79	0x3ee9c6ec	0.45659578
80	0xbe50f6e1	-0.20406677
81	0x3e6376f5	0.22213347
82	0x3d639773	0.055564355
83	0x3e2adea7	0.16686498
84	0x3dd3192a	0.10307534
85	0x3e9ea739	0.30986956
86	0x3e5673f2	0.20942667
87	0x3c2c67c7	0.010522789
88	0x3e912863	0.28351125
89	0x3e813667	0.25236818
90	0x3d83d6be	0.06437443
91	0xbda080a9	-0.0783704
92	0x3ca31d4e	0.019911435
93	0x3dee8757	0.11646908
94	0xbed09b09	-0.40743282
95	0xbee6e47e	-0.450962
96	0x3ec6e006	0.3884279
97	0x3e8b2ac7	0.27181074
98	0xbb0d6542	-0.0021575247
99	0x3eca5f78	0.39525962
100	0x3df489eb	0.11940368
101	0xbed4b626	-0.41545218
102	0x3db5d5cf	0.088786714
103	0xbeafaa4a	-0.34309608
104	0xbe11ee67	-0.142511
105	0x3e3c0445	0.18361004
106	0x3ec3453c	0.3813876
107	0x3af917c7	0.0019004279
108	0x3ed1b1fd	0.40956107
109	0xbe27d278	-0.16388881
110	0xbebfdf92	-0.37475258
111	0xbedb39fe	-0.42817682
112	0xbeacdb3d	-0.33761016
113	0x3d965037	0.073395185
114	0x3e4c49b9	0.19949998
115	0x3e9d7695	0.30754533
116	0x3ed46e71	0.4149051
117	0xbf0cbd41	-0.5497628
118	0x3c77e42b	0.015130083
119	0x3e028385	0.12745483
120	0xbef3c957	-0.47614548
121	0x3ea7c688	0.32768655
122	0x3e843fa8	0.25829816
123	0xbd335e97	-0.04379138
124	0x3e610446	0.21974286
125	0x3dc30529	0.095224686
126	0x3d971cba	0.07378526
127	0xbcf4693b	-0.029835334
128	0x3d14fd41	0.036374334
129	0x3db3d134	0.08780137
130	0x3dda751f	0.1066687
131	0x3e5b1cd0	0.2139771
132	0xbee72e9f	-0.45152757
133	0xbe114cf0	-0.14189506
134	0x3eb3e7b3	0.3513771
135	0x3e82fa75	0.2558171
136	0x3ecbccd5	0.39804712
137	0xbe245551	-0.1604817
138	0xbee63963	-0.44965658
139	0x3ea86796	0.3289153
140	0x3e5e84bb	0.2173032
141	0xbf536b94	-0.82586026
142	0xbc084c73	-0.008319008
143	0x3e383a77	0.17991053
144	0xbf1f07ab	-0.62121075
145	0xbe2f9982	-0.17148402
146	0xbdb3460d	-0.087535955
147	0xbf15bbc7	-0.5848965
148	0x39873476	0.00025788293
149	0x3f01347c	0.5047071
150	0xbea18e9a	-0.3155411
151	0x3e1c3371	0.15253998
152	0x3f118e55	0.56857806
153	0x3e36a993	0.17838125
154	0x3e4a95c4	0.19783694
155	0x3c0bbab4	0.0085284
156	0x3e2a1352	0.16608933
157	0x3e3e10eb	0.18561141
158	0xbe02c5be	-0.12770745
159	0xbe20ea4e	-0.1571438
160	0x3deb7c5a	0.114983276
161	0xbefe9f90	-0.49731112
162	0x3e4606f0	0.19338584
163	0x3eceedff	0.40415952
164	0x3ef12c19	0.47103956
165	0x3d889017	0.06668108
166	0x3e065fa5	0.13122423
167	0xbc820c94	-0.015875138
168	0xbe1d7db2	-0.1537998
169	0xbf280a29	-0.65640503
170	0xbefb6d98	-0.4910705
171	0x3e10ec3e	0.14152619
172	0x3e825820	0.2545786
173	0xbe0727a7	-0.1319872
174	0x3ddcc69c	0.10780069
175	0x3e948eaa	0.29015094
176	0x3eb87440	0.36026192
177	0xbe4e7e89	-0.20165457
178	0xbea38a12	-0.31941277
179	0xbe3ad5b3	-0.18245582
180	0xbeeaa2d0	-0.4582734
181	0xbe5718b8	-0.21005523
182	0xbe0ffce3	-0.14061312
183	0xbe82daab	-0.25557455
184	0xbe1a387d	-0.15060611
185	0xbe0ba5be	-0.13637444
186	0x3eb6c7a7	0.35699198
187	0x3eb31d9f	0.34983537
188	0x3ea65913	0.32489833
189	0xbea56e59	-0.3231075
190	0xbecced13	-0.40024623
191	0xbe881c76	-0.26584214
192	0x3e3801aa	0.17969385
193	0x3bda012e	0.0066529727
194	0xbd59be28	-0.053159863
195	0x3f0b27ef	0.5435781
196	0x3d86643c	0.06562087
197	0x3dc73ba7	0.09728175
198	0xbbbe8e76	-0.0058153225
199	0x3e77615e	0.24158236
200	0x3dd30056	0.103027984
201	0x3db80af0	0.08986461
202	0x3e387a21	0.18015338
203	0x3eb87039	0.3602312
204	0xbf0789df	-0.5294475
205	0xbef442df	-0.4770727
206	0xbe817dd8	-0.25291324
207	0x3d066329	0.03280941
208	0x3e9dd888	0.30829263
209	0xbeec0ee5	-0.46105114
210	0x3ec07688	0.37590432
211	0xbbda50a5	-0.0066624456
212	0xbe7b22ea	-0.24525037
213	0x3e60a10c	0.21936435
214	0x3ecd9911	0.40155843
215	0xbeb0899b	-0.34479985
216	0xbd3e164e	-0.04640799
217	0x3eac16ce	0.3361115
218	0x3ee19dc9	0.44065693
219	0xbdebacfd	-0.11507604
220	0xbdffc021	-0.124878176
221	0x3eaecbf4	0.3413998
222	0xbf11f912	-0.57020676
223	0xbee4351c	-0.4457177
224	0xbed3cf68	-0.41369176
225	0xbf076697	-0.52890915
226	0xbe9decd9	-0.30844763
227	0xbde25c24	-0.11052731
228	0xbe39189e	-0.18075797
229	0x3ed9ef01	0.42565158
230	0x3e8475dd	0.25871173
231	0x3eded644	0.43522847
232	0x3d1cd03b	0.03828452
233	0xbe609392	-0.21931294
234	0xbedc3b72	-0.43014103
235	0xbde28dc4	-0.11062196
236	0x3ebb6718	0.36602092
237	0xbda31684	-0.07963279
238	0x3ec12bb2	0.3772865
239	0x3e91c04e	0.2846703
240	0x3ec661f4	0.38746607
241	0xbe64bad6	-0.22336897
242	0xbf26cf3e	-0.65159976
243	0xbd18df8a	-0.03732256
244	0xbe4ddc9c	-0.20103687
245	0x3e3c9cd1	0.18419196
246	0xbd517ada	-0.05114255
247	0x3eb102b5	0.34572378
248	0x3c9e02da	0.01928847
249	0x3dd5e8c6	0.10444789
250	0x3e7d7841	0.24752904
251	0xbe8a8e89	-0.2706187
252	0xbe5db579	-0.21651258
253	0xbf0f039f	-0.558649
254	0xbe8c22ba	-0.27370244
255	0x3e9b45d5	0.30326715

bias f4 [32]
0	0x3d3d5370	0.04622215
1	0x3e15c2da	0.14625111
2	0x3e230a73	0.15921955
3	0xbe2a1433	-0.16609268
4	0xbe021b43	-0.12705712
5	0xbe8a0cbb	-0.26962838
6	0x3ea2f1f3	0.31825218
7	0xbddea709	-0.10871703
8	0x3ba15a13	0.0049240678
9	0xbe35aed5	-0.17742474
10	0xbd374d9a	-0.04475174
11	0xbe17017b	-0.14746659
12	0xbdd559b8	-0.10417503
13	0xb830551a	-4.2040927e-05
14	0xbd761c57	-0.06008562
15	0xbdacaf1d	-0.08431838
16	0xbcf0a8c1	-0.029377343
17	0xbc4ff8d7	-0.012693605
18	0x38b882af	8.7981454e-05
19	0xbdb92c0b	-0.09041604
20	0xbade0a2a	-0.0016940285
21	0xbc92005a	-0.017822433
22	0x3ca3da1a	0.02000146
23	0xbe30ddc2	-0.17272094
24	0x3db1afe2	0.08676125
25	0xbc491a00	-0.012274265
26	0xbd8eca46	-0.06972174
27	0xbe3ab370	-0.18232512
28	0xbc5a2d7e	-0.01331651
29	0x3dd144bc	0.10218188
30	0xbcf87412	-0.030328784
31	0xbe7c0d92	-0.24614552

weight f4 [64, 32, 3, 3]
0	0x3dadce9e	0.08486675
1	0x3e029f68	0.12756121
2	0x3e939d37	0.28830883
3	0xbdd8081a	-0.1054842
4	0xbd944965	-0.072405614
5	0xbc35af93	-0.011089223
6	0xbe2106b9	-0.1572522
7	0xbe977cac	-0.29587305
8	0xbea12245	-0.31471458
9	0x3dbfd761	0.09367252
10	0x3dad93f1	0.08475483
11	0xbe1549fc	-0.14579004
12	0xbcc3c1d5	-0.023896137
13	0xbd7f52d8	-0.062334865
14	0xbda221e4	-0.079166204
15	0xbdd10a92	-0.10207094
16	0xbd9a9ba6	-0.07549219
17	0xbd15423a	-0.03644011
18	0x3d4ec7f1	0.050483648
19	0x3d6ba34f	0.05752879
20	0x3eb015e6	0.34391707
21	0x3d664823	0.05622114
22	0x3dfd3dec	0.12365326
23	0x3e5d4266	0.2160736
24	0xbd6e6d27	-0.058209565
25	0xbd49a26c	-0.049227163
26	0xbd8f3989	-0.06993396
27	0x3d803d26	0.06261663
28	0x3e12fd07	0.14354335
29	0xbb364d29	-0.0027816987
30	0xbd91ef80	-0.07125759
31	0xbd6daa22	-0.05802358
32	0xbe2e3877	-0.17013727
33	0xbe2aa3d2	-0.16664055
34	0xbe906cd0	-0.28208017
35	0xbd587dc9	-0.052854333
36	0x3dd43b65	0.10362891
37	0x3e14e400	0.145401
38	0x3c82e399	0.015977668
39	0xbcd59604	-0.02607251
40	0xbd389482	-0.045063503
41	0xbe4916bc	-0.19637579
42	0xbe5e062c	-0.21682042
43	0xbdbbabb5	-0.0916361
44	0x3b468c3e	0.0030295993
45	0xbd9560b5	-0.07293836
46	0x3e7746db	0.24148123
47	0x3e0eb313	0.13935499
48	0xbe1527d8	-0.1456598
49	0x3da3e5d9	0.08002824
50	0xbe6640d7	-0.22485672
51	0xbe96b4c1	-0.2943478
52	0xbec55b6a	-0.38546306
53	0xbda50bc4	-0.08058885
54	0x3ceeea47	0.029164447
55	0xbbb7e39c	-0.00561185
56	0x3d95e3d6	0.07318847
57	0x3ce17918	0.027523562
58	0x3afc7d14	0.001926335
59	0x3bbe6140	0.005809933
60	0x3d42c94c	0.047555253
61	0x3cbfcead	0.02341398
62	0xbd8dabfe	-0.069175705
63	0x3d8b6ffe	0.0680847
64	0x3dfdc627	0.1239131
65	0xbe0013fd	-0.12507625
66	0xbddc4da8	-0.10756999
67	0x3d072514	0.032994345
68	0xbd3cd4bb	-0.046101313
69	0xbe12c9a1	-0.14334728
70	0xbcf11f19	-0.029433774
71	0x39437f2e	0.00018644027
72	0xbd484c41	-0.048900846
73	0xbddd7108	-0.108125746
74	0xbe034a1d	-0.1282124
75	0xbe810b54	-0.25203955
76	0xbdb1ab0d	-0.086752035
77	0x3ddff031	0.10934485
78	0x3e1eed60	0.15520239
79	0x3da403c8	0.08008534
80	0x3cf7e3d9	0.030260013
81	0x3db0ee79	0.08639235
82	0x3e165f6b	0.14684837
83	0xbda4d652	-0.08048691
84	0x3c5e3ee8	0.013564803
85	0xbc43c7ef	-0.011949523
86	0xbe91883b	-0.28424248
87	0xbe12fa66	-0.14353332
88	0xbe806e93	-0.2508436
89	0xbdc0b974	-0.094103724
90	0x3d5a9f11	0.053374354
91	0x3d5bb8f4	0.053643182
92	0x3de51a44	0.111866504
93	0x3da41efa	0.08013721
94	0xbcb824f0	-0.02247855
95	0xbd62292c	-0.055215046
96	0xbd394e70	-0.04524082
97	0xbe80574d	-0.25066605
98	0xbe9b6c0c	-0.3035587
99	0xbb27aa16	-0.0025583557
100	0x3c6900aa	0.01422135
101	0x3de827e5	0.11335734
102	0x3cbb9598	0.02289848
103	0x3dfeeb07	0.12447172
104	0x3d93fc98	0.07225913
105	0xbcfd5502	-0.030924324
106	0xbe279347	-0.16364776
107	0xbdee8958	-0.1164729
108	0xbe1ecf37	-0.15508734
109	0xbe12e6bc	-0.1434583
110	0xbe682328	-0.22669661
111	0xbd8f59b0	-0.069995284
112	0x3ccbd106	0.024879944
113	0x3e00ec51	0.12590148
114	0x3aa72d58	0.0012754602
115	0xbd67557a	-0.056478
116	0x3de4620d	0.11151514
117	0x3dfecd79	0.124415345
118	0x3db7eee5	0.089811124
119	0xbe06b955	-0.13156636
120	0xbd01107a	-0.031509854
121	0xbd02ddcd	-0.031949807
122	0xbe138ebc	-0.14409918
123	0xbe850138	-0.25977492
124	0xbe1300a4	-0.14355713
125	0x3d84d204	0.0648537
126	0x3cb8f0da	0.022575784
127	0x3ded49ba	0.11586328
128	0xbd9467b2	-0.07246341
129	0xbc600dea	-0.013675192
130	0xbd87c149	-0.06628663
131	0xbe69f847	-0.22848617
132	0xbdea1796	-0.1143028
133	0xbdb3c0fd	-0.08777044
134	0xbdb69f4d	-0.08917103
135	0x3d82f416	0.06394212
136	0x3e0a93cd	0.13532944
137	0xbe03054e	-0.12794992
138	0x3df417b1	0.11918581
139	0x3dc3ba10	0.09556973
140	0xbe4baa69	-0.19889225
141	0x3d835dc8	0.06414372
142	0x3dc84e06	0.09780507
143	0xbca658d4	-0.020306028
144	0x3e76015f	0.2402396
145	0x3e86120e	0.2618565
146	0xbe0d279f	-0.13784645
147	0x3da7b46c	0.081887096
148	0xbe812675	-0.25224653
149	0x3e2549e8	0.16141474
150	0xbef70abf	-0.48250386
151	0xbda2e9da	-0.0795476
152	0x3e44a560	0.1920371
153	0x3d871ede	0.06597684
154	0x3dda6516	0.10663812
155	0x3dce9ebf	0.10088872
156	0x3c725e99	0.014793062
157	0x3daa6367	0.08319741
158	0xbcce6b21	-0.025197567
159	0xbd175594	-0.036946848
160	0xbd3da5d5	-0.046300728
161	0xbe014a50	-0.12626004
162	0x3e45c1d1	0.19312216
163	0x3e331c05	0.17491157
164	0x3e437bcd	0.19090195
165	0x3e4b4d22	0.19853643
166	0x3df2a119	0.11847133
167	0xbe083bac	-0.13304013
168	0x3dcbd3a5	0.09952477
169	0xbd0b588e	-0.03402
170	0xbe960cd8	-0.29306674
171	0x3e03ca07	0.12870036
172	0x3dc590c8	0.096467555
173	0x3d11afd3	0.03556807
174	0x3de4866e	0.11158453
175	0x3dff5107	0.124666266
176	0xbe3df5e5	-0.18550833
177	0x3ba34878	0.004983004
178	0xbe13ecf4	-0.14445859
179	0xbe1acb3a	-0.15116587
180	0xbd17f8bb	-0.037102442
181	0xbc648b2b	-0.013949196
182	0xbe2fb6e2	-0.17159608
183	0xbe47be44	-0.19506174
184	0xbd9ec7e5	-0.077529706
185	0xba044c4d	-0.000504677
186	0x3c94a999	0.018147277
187	0xbd87a59e	-0.06623386
188	0x3c9c7ea5	0.019103358
189	0xbdfeca3c	-0.12440917
190	0xbdfb210a	-0.12262161
191	0xbe51893d	-0.20462508
192	0xbe700f1a	-0.23443261
193	0xbe7bb4d4	-0.24580699
194	0xbe977110	-0.29578447
195	0x3d2ad78a	0.04170946
196	0xbdffdcb1	-0.124932654
197	0xbe149b35	-0.14512332
198	0x3dbc77e5	0.092025556
199	0x3d46c906	0.048531555
200	0x3cdb70b2	0.026787136
201	0x3d38b4f4	0.045094445
202	0x3db10ac3	0.08644631
203	0xbe450e8c	-0.1924383
204	0x3d42124b	0.047380727
205	0xbe0c7af1	-0.13718773
206	0xbe5b8eca	-0.21441188
207	0x3d7ba2e3	0.061434638
208	0x3df09f9a	0.117491916
209	0x3e828786	0.2549402
210	0xbdb45457	-0.08805149
211	0xbd026732	-0.031836696
212	0xbd7de659	-0.061987255
213	0xbe2f2ef0	-0.17107749
214	0xbea146a9	-0.31499222
215	0xbe670134	-0.22559053
216	0x3e03ca82	0.1287022
217	0x3d893a7c	0.06700608
218	0x3d297757	0.041373577
219	0x3e605d57	0.21910606
220	0x3c982489	0.018572109
221	0xbe2f497f	-0.1711788
222	0x3e17a0e8	0.14807475
223	0xbdac1c15	-0.08403794
224	0xbe028aaf	-0.12748216
225	0xbc4b21f9	-0.012398236
226	0x3c92bd8a	0.017912645
227	0xbdf0182b	-0.1172336
228	0xbe75c866	-0.24002227
229	0xbd61a74f	-0.0550912
230	0x3ce2fec7	0.027709378
231	0xbd6b18d4	-0.057396725
232	0x3ca6288b	0.020283004
233	0x3dd57c23	0.10424068
234	0xbc29bf05	-0.010360484
235	0x3e1d55cd	0.15364762
236	0x3e084621	0.13308002
237	0x3d953648	0.07285744
238	0x3e33c649	0.17556109
239	0xbe71127d	-0.23542209
240	0x3a8b6af9	0.0010636739
241	0xbdd01ed8	-0.10162133
242	0x3d2339a0	0.039849877
243	0x3d883fe0	0.06652808
244	0x3e2e855e	0.17043063
245	0x3d07c202	0.033144005
246	0x3a27c6c6	0.0006400164
247	0xbd12ecca	-0.03587035
248	0xbe8200d5	-0.2539126
249	0xbe3590b6	-0.17730984
250	0xbe3317a7	-0.17489491
251	0xbdefd92d	-0.11711345
252	0xbcf63863	-0.030056184
253	0xbdc148cc	-0.09437713
254	0xbe55ddd9	-0.2088541
255	0xbde474f5	-0.1115512

bias f4 [64]
0	0xbc832a4c	-0.01601138
1	0xbd6aebd9	-0.057353828
2	0xbde2ece5	-0.1108034
3	0xbd94258c	-0.07233724
4	0xbe2073f9	-0.1566924
5	0xbcaacf14	-0.020850696
6	0x3cc79059	0.024360823
7	0x3cb8e784	0.022571333
8	0xbda74096	-0.08166616
9	0xbd07a5e1	-0.03311718
10	0xbe1ca24e	-0.1529629
11	0xbe1973aa	-0.14985529
12	0xbcda25df	-0.026629386
13	0xbdc45e68	-0.09588319
14	0x3c1c614d	0.009544683
15	0xbdfe6dc3	-0.12423279
16	0x3c7b810c	0.015350591
17	0xbda1ec97	-0.07906454
18	0xbcb218df	-0.021740375
19	0xbb99edb3	-0.0046975254
20	0xbd20d686	-0.039267085
21	0xbdd4501d	-0.10366843
22	0xbc81812b	-0.015808662
23	0xbe0d03db	-0.13771002
24	0xbc37b867	-0.011213399
25	0xbdfb32c6	-0.12265544
26	0xbdc2a987	-0.09504991
27	0xbd81b514	-0.06333366
28	0xbcbaaae3	-0.022786563
29	0x3ca18dc2	0.019720916
30	0xbc3b3465	-0.011426066
31	0xbda792e2	-0.081823125
32	0x3ccee791	0.025256904
33	0xbd9dc0a0	-0.07702756
34	0xbdb92e6b	-0.09042057
35	0xbd9265c1	-0.07148314
36	0x3d454f36	0.048171245
37	0xbd6d66e9	-0.05795947
38	0xbd9f1a81	-0.07768727
39	0x3cef0696	0.029177945
40	0xbd16b024	-0.036789075
41	0xbd464c8e	-0.048412852
42	0x3cac2276	0.021012526
43	0xbdd54c5c	-0.10414955
44	0xbdf7a1e6	-0.120914266
45	0xbd5ee3f3	-0.054416608
46	0x3b97c494	0.0046315882
47	0xbdd4a739	-0.10383458
48	0xbcfd07cc	-0.030887507
49	0xbd1e739d	-0.038684476
50	0xbdb49a3c	-0.0881848
51	0xbe0c50b8	-0.13702667
52	0xbb9ba515	-0.004749904
53	0xbd9aac22	-0.07552363
54	0xbdbe4227	-0.09289961
55	0xbb0ae5bc	-0.0021194061
56	0xbd0a2fc7	-0.03373697
57	0xbdbd980a	-0.09257515
58	0xbd5a0812	-0.053230353
59	0xbd6ea1f1	-0.058259908
60	0xbcffd102	-0.031227592
61	0xbd9e60c7	-0.077333026
62	0xbcd1beb0	-0.025603622
63	0xbdc264e2	-0.09491898

weight f4 [128, 1600]
0	0x3b8348d4	0.0040064845
1	0x3ca23ea2	0.019805256
2	0x3e1cbedc	0.15307182
3	0x3dc2a26e	0.09503637
4	0x3e70b8cd	0.23507996
5	0x3d38d0b4	0.04512091
6	0xbd5dedb9	-0.054181788
7	0x3d96a587	0.073557906
8	0x3dd11db0	0.102107406
9	0x3ddf591d	0.10905669
10	0x3d726c97	0.05918559
11	0xbd333cf9	-0.04375932
12	0xbd952c8e	-0.07283889
13	0x3e0ef524	0.13960701
14	0x3e170df7	0.14751421
15	0x3cec83f1	0.028871508
16	0x3d9c340d	0.076271154
17	0x3b5c1ca2	0.0033586402
18	0xbe050602	-0.12990573
19	0xbc4aa65a	-0.012368763
20	0x3b8824f2	0.004154795
21	0xbe22bf2c	-0.15893239
22	0xbda63e22	-0.0811732
23	0xbca22fa2	-0.019798104
24	0xbd404cd6	-0.046948276
25	0x3d942d78	0.07235235
26	0xbc4ad8d2	-0.012380796
27	0xba4f1897	-0.00079000875
28	0x3d5653f7	0.05232617
29	0xbd081271	-0.033220712
30	0x3d0826eb	0.03324024
31	0xbad40ee9	-0.001617876
32	0xbdba263c	-0.09089324
33	0xbd38cfa0	-0.04511988
34	0x3d93899e	0.07203983
35	0x3cda23b3	0.02662835
36	0x3dd42951	0.10359443
37	0x3bf05869	0.007334758
38	0x3d94d7d8	0.072677314
39	0x3d938cf1	0.07204617
40	0x3dcf2f59	0.10116453
41	0x3e26e095	0.16296609
42	0xbc0c2c7b	-0.008555527
43	0xbc4e1a3d	-0.012579498
44	0xbcaf7f85	-0.02142311
45	0xbe437f21	-0.19091465
46	0xbdc5af41	-0.09652568
47	0x3da40278	0.080082834
48	0x3d41f5e3	0.047353636
49	0x3c96cc65	0.01840801
50	0x3c8b39d6	0.016995352
51	0x3c49bccf	0.012313082
52	0xbdd74b23	-0.10512378
53	0x3d0d8f2b	0.034560364
54	0xbc49ed9b	-0.012324716
55	0xbd6eac9b	-0.05827008
56	0xbdd79ef6	-0.10528366
57	0xbdae2a0f	-0.08504116
58	0x3d1b766d	0.037954737
59	0x3cce2522	0.02516419
60	0x3c00c4f1	0.0078594545
61	0x3da43ee0	0.08019805
62	0x3d6e6e73	0.0582108
63	0x3e39cd02	0.1814461
64	0x3cded0da	0.027199198
65	0xbdd8b528	-0.10581428
66	0x3d68a3e6	0.05679693
67	0x3ce67ea1	0.028136553
68	0x3d1f1ae3	0.038844
69	0x3d9f4ad1	0.07777942
70	0xbd6abd3d	-0.057309378
71	0xbd36e3ee	-0.044650964
72	0x3e44e3b9	0.19227494
73	0x3e677ee9	0.22607006
74	0x3d8ab741	0.06773234
75	0xbc2cd570	-0.010548934
76	0x3d9ae38b	0.075629316
77	0x3dc4dafa	0.09612079
78	0x3db69c81	0.089165695
79	0x3e1bab02	0.15201953
80	0x3b26ece9	0.00254708
81	0xbc5775c5	-0.013150637
82	0xbcda33d9	-0.026636051
83	0xbdaa4822	-0.083145395
84	0xbdc29b0b	-0.09502228
85	0x3e494ec0	0.19658947
86	0xbdb944bd	-0.09046314
87	0x3dd98474	0.106209666
88	0xbc5624bf	-0.013070284
89	0xbc0675bf	-0.008206784
90	0xbc6b52b5	-0.014362981
91	0x3e85d7d0	0.26141214
92	0x3e8534ec	0.2601694
93	0xbccac43c	-0.024751775
94	0xbdc6db22	-0.09709765
95	0x3e07b5b9	0.13252915
96	0xbc786c9f	-0.015162616
97	0xbc140a52	-0.009035664
98	0xbdb366dc	-0.08759853
99	0xbd133abb	-0.03594468
100	0x3d8fa99c	0.07014772
101	0x3dc160ca	0.09442289
102	0x3daa4dbd	0.08315609
103	0xbe03a6e8	-0.12856638
104	0xbc59a650	-0.013284281
105	0x3d537303	0.051623356
106	0x3d1b379a	0.037894823
107	0xbda51815	-0.08061234
108	0xbd9515ef	-0.07279574
109	0x3d7b6b3c	0.061381564
110	0x3c8be5ec	0.017077409
111	0xbcb1ff37	-0.021728141
112	0x3cd2a336	0.02571259
113	0xbe057425	-0.13032587
114	0x3de74caa	0.112939194
115	0x3e0d2e1e	0.13787124
116	0x3e5f0d1f	0.21782349
117	0xbb0d71eb	-0.0021582793
118	0xbe09ef9a	-0.13470307
119	0xbd0cf8c2	-0.03441692
120	0xbcfb08ce	-0.030643847
121	0xbd9fee62	-0.0780914
122	0xbdd7e496	-0.10541646
123	0xbd720afe	-0.059092514
124	0xbb73242d	-0.003710042
125	0xbd88efce	-0.06686364
126	0x3dcfd2e1	0.10147644
127	0x3ddeed51	0.10885108
128	0xbd85af35	-0.06527559
129	0x3d9623f6	0.07331078
130	0xbd574155	-0.05255254
131	0x3d95389b	0.07286187
132	0x3d9c4afa	0.07631488
133	0x3d661434	0.05617161
134	0x3e43055e	0.19045016
135	0x3cafac20	0.02144438
136	0x3d8feaa6	0.070271775
137	0x3da7cb3b	0.0819306
138	0xbe2a8564	-0.16652447
139	0x3d1dc4d4	0.038517788
140	0xbcd3afed	-0.025840724
141	0xbd37659f	-0.044774648
142	0x3c37c294	0.011215825
143	0x3d04a3da	0.032382824
144	0x3cd1fb13	0.025632417
145	0x3cf66399	0.030076789
146	0x3cbe668f	0.023242263
147	0xbddd7a9e	-0.10814403
148	0xbc661c97	-0.014044902
149	0x3dd26e68	0.102749646
150	0xbd14d059	-0.03633151
151	0x3e29afb5	0.16570933
152	0x3c5b98c7	0.013403124
153	0x3d87ecd1	0.06636966
154	0x3cc325c2	0.023821715
155	0xbcdb376f	-0.026759831
156	0x3d81a652	0.06330551
157	0x3d1e9337	0.038714614
158	0xbd1759aa	-0.036950745
159	0xbd217330	-0.039416492
160	0xbc596f1d	-0.01327112
161	0xbc1f7897	-0.009733341
162	0xbd8279cf	-0.063708894
163	0xbdce3b97	-0.100699596
164	0xbe4d107b	-0.20025818
165	0x3d9cbeea	0.076536015
166	0x3d8ac95c	0.067766875
167	0x3a43fef8	0.0007476653
168	0xbd8f72ec	-0.070043415
169	0xbe4b63aa	-0.19862238
170	0x3db54e4a	0.08852823
171	0x3e4a10b3	0.19732933
172	0x3d28ae37	0.04118177
173	0xbc877cd0	-0.016539007
174	0xbd8b6c74	-0.06807795
175	0xbcc5ced7	-0.02414648
176	0xbbdefa23	-0.006804721
177	0x3cd687f3	0.026187873
178	0xbc4ea672	-0.012612926
179	0xbd172f87	-0.03691056
180	0xbc0696cd	-0.008214665
181	0xbd3b8faf	-0.045791324
182	0x3ce16385	0.027513275
183	0xbceab50c	-0.028650783
184	0xbca48c7b	-0.020086518
185	0x3c883749	0.016627925
186	0x3d01b561	0.031667117
187	0x3c6b16f9	0.014348739
188	0x3d3abeac	0.045591995
189	0xbc69721e	-0.014248399
190	0xbd5920e7	-0.053009894
191	0xbd363e65	-0.044493098
192	0xbd5e16c0	-0.054220915
193	0xbd8cabb6	-0.06868689
194	0x3d267a41	0.040643934
195	0xbbf4ae9e	-0.007467105
196	0x3b327ce2	0.002723508
197	0xbd0b5175	-0.03401323
198	0xbd0c9aab	-0.03432719
199	0xbc49837f	-0.0122994175
200	0xbe36a2bf	-0.1783552
201	0xbcb0663d	-0.021533126
202	0x3d789cb7	0.06069633
203	0x3d4591f0	0.04823488
204	0x3d39ea77	0.04538962
205	0xbd3a986b	-0.045555513
206	0xbb1f37fd	-0.0024294846
207	0x3c92b17a	0.017906893
208	0x3d95db6c	0.07317242
209	0x3db10508	0.08643538
210	0x3d2efef1	0.0427236
211	0x3d5a9bdb	0.05337129
212	0xbd9aba29	-0.075550385
213	0x3c87717f	0.016533611
214	0x3df90f12	0.121610776
215	0xbdb32886	-0.087479636
216	0xbd543e48	-0.05181721
217	0x3d6782a8	0.056521088
218	0x3d553350	0.05205089
219	0x3e12431d	0.14283414
220	0x3ca0ccbc	0.019628875
221	0xbb03d490	-0.002011571
222	0xba85f125	-0.0010218961
223	0x3ce740db	0.028229168
224	0x3d1c263b	0.038122397
225	0xbd961990	-0.073290944
226	0x3dc8a911	0.09797872
227	0xbb4c287d	-0.0031152063
228	0xbdd36b70	-0.103232265
229	0xbda16a20	-0.0788157
230	0x3d05a603	0.032629024
231	0xbc709a43	-0.014685216
232	0xbd600ffe	-0.05470275
233	0x3dc2ef01	0.095182426
234	0x3e3e825b	0.18604414
235	0x3e5355c7	0.2063819
236	0x3d839211	0.06424344
237	0xbe374ce2	-0.17900422
238	0x3d7727b0	0.060340583
239	0x3cd2baf6	0.025723916
240	0xbdcbd265	-0.09952239
241	0xbe240559	-0.16017665
242	0x3d3f8a09	0.0467625
243	0x3cc560a1	0.024093928
244	0x3e66139a	0.22468415
245	0xbdd11b98	-0.10210341
246	0xbe004c73	-0.12529163
247	0xbcc6ec5a	-0.024282623
248	0x3daf8c4e	0.08571683
249	0x3e0bd8eb	0.13656966
250	0xbd502e11	-0.050825182
251	0xbda1c129	-0.078981705
252	0xbb09896b	-0.0020986449
253	0xbcd2de05	-0.025740633
254	0xbd36b508	-0.04460624
255	0xbd4526dc	-0.048132762

bias f4 [128]
0	0x3bf9b1ec	0.007620087
1	0xbb8f60eb	-0.004375567
2	0xbd00b534	-0.03142281
3	0xbc9e53dc	-0.019327097
4	0x3cd37bd5	0.025815884
5	0xbc5ccd8e	-0.013476742
6	0xbcf04ced	-0.029333556
7	0xbad01bc7	-0.0015877419
8	0x3bb8b832	0.005637192
9	0xbc0f4907	-0.008745438
10	0x3c257d05	0.010100608
11	0xbd32477e	-0.04352521
12	0xbd1cf24b	-0.038317006
13	0x3c74862a	0.014924565
14	0x3aa56bc7	0.0012620621
15	0x3a8e4775	0.0010855036
16	0xbc2aedd9	-0.010432684
17	0xbcb71118	-0.022347018
18	0x3ce4fcc9	0.027952569
19	0xbc88a08a	-0.016678113
20	0x3cbca8d2	0.023029719
21	0x3c1007d4	0.008790929
22	0xbc8908cf	-0.016727833
23	0xbcb21c71	-0.021742078
24	0x3d9a20fd	0.07525823
25	0xbb22bd6c	-0.0024832143
26	0x3d442b5a	0.047892906
27	0xbc2fe563	-0.010735842
28	0x3cfdc9eb	0.030980071
29	0xbcd3d5f5	-0.025858859
30	0x3ba90538	0.005158093
31	0xba614377	-0.0008593122
32	0xbd9c077c	-0.07618615
33	0xb9492824	-0.00019183807
34	0x3b897e77	0.004195984
35	0xbcca094e	-0.02466264
36	0xbc788b0f	-0.015169873
37	0x3cab7edb	0.020934513
38	0xbc973d65	-0.018461892
39	0xbcbb8684	-0.02289129
40	0x3c0c7534	0.008572865
41	0xbc9a26e3	-0.01881737
42	0x3c445a52	0.011984425
43	0xbaddc528	-0.0016919719
44	0xbc9309d5	-0.017949024
45	0xbd37a16c	-0.04483168
46	0x3b9da8c8	0.00481138
47	0x3d5718f2	0.052514024
48	0x3c56a883	0.0131017
49	0xbc1d4d8c	-0.009601008
50	0x3d05c006	0.03265383
51	0xbc24c8fd	-0.010057685
52	0x3b7275f5	0.0036996577
53	0x3beebcd5	0.007285694
54	0xbc922064	-0.01783771
55	0xbc8c2ddc	-0.017111711
56	0x3d40ad14	0.04704006
57	0xbb990174	-0.0046693627
58	0xbc1fb358	-0.009747349
59	0xbd8e590c	-0.06950578
60	0x3cf37b7e	0.029721972
61	0x3d273fa6	0.040832184
62	0xbac4c3d9	-0.001501198
63	0xbc8fe8b0	-0.017567009
64	0xbca91b05	-0.020642767
65	0x3b962888	0.0045824684
66	0xbcb1e6a3	-0.021716421
67	0x3d288d85	0.04115059
68	0xbc4829fd	-0.012217042
69	0x3b95c034	0.0045700315
70	0x3c0f6339	0.008751684
71	0x3bb8d977	0.005641158
72	0xbd7fe9f3	-0.06247897
73	0xbd7765cf	-0.060399827
74	0xbbc530ca	-0.006017779
75	0x3d3377bd	0.043815363
76	0x3b8f6957	0.004376571
77	0x3c76004c	0.015014719
78	0xbd9fc2e7	-0.078008465
79	0xbbdf6a55	-0.0068180957
80	0x3d52098b	0.051278632
81	0x3cb47c90	0.022032052
82	0x3c157ffa	0.00912475
83	0xbc29f444	-0.010373179
84	0x3ceacf13	0.028663194
85	0xbcc1198e	-0.023571756
86	0x3c70944e	0.014683796
87	0x3c4ab86e	0.012373073
88	0xbd0c079c	-0.034186944
89	0xbc8bed6f	-0.01708099
90	0xbbc30a40	-0.0059521496
91	0x3c9c3769	0.01906939
92	0xbd1f694b	-0.038918775
93	0xbd0aace7	-0.0338563
94	0xbbce8719	-0.006302726
95	0x3d05c46d	0.03265803
96	0xbc2a16b6	-0.010381391
97	0xbd5f6ef2	-0.054549165
98	0xbc89306d	-0.016746724
99	0xba105b3b	-0.00055067585
100	0xbbeddf9e	-0.0072593233
101	0x3cdea443	0.027177935
102	0x3d3105cc	0.04321842
103	0x3d2f6481	0.042820457
104	0xbcb29972	-0.021801684
105	0x3d3290c2	0.043595083
106	0x3d975401	0.07389069
107	0xb9f74496	-0.00047162612
108	0x3b8b61e5	0.0042536133
109	0xbc259851	-0.010107116
110	0x3c30a2da	0.010781014
111	0x3b8a4d45	0.004220637
112	0x3d4cf7c6	0.050040983
113	0xbc0f0eb8	-0.008731537
114	0xbcbdc00e	-0.023162868
115	0xbcb01ca1	-0.021498026
116	0xbb26fbc8	-0.0025479663
117	0xbb4fc483	-0.0031702823
118	0xbd867b40	-0.06566477
119	0x3b60b5ae	0.0034287977
120	0x3d0fb90a	0.035088576
121	0x3d8b702c	0.068085045
122	0x3c106c4d	0.008814883
123	0x3b58d73d	0.0033087276
124	0xbcfdfcc0	-0.03100431
125	0xbc667239	-0.014065319
126	0x3c4e64b9	0.012597256
127	0xbc9ef609	-0.019404428

weight f4 [10, 128]
0	0xbe05926a	-0.13044134
1	0x3d0feee2	0.035139926
2	0x3c7805b1	0.015138076
3	0x3b3a5701	0.0028433206
4	0x3df411e6	0.11917476
5	0xbdf33633	-0.11875572
6	0xbe2f083e	-0.17092988
7	0x3d7f2c5a	0.062298156
8	0xbe67b2ad	-0.22626753
9	0xbd8e27ca	-0.06941183
10	0x3d8152ea	0.06314643
11	0x3d5d97c4	0.054099813
12	0xbdef7eff	-0.116941445
13	0x3b95b439	0.0045686034
14	0xbd0722f2	-0.03299231
15	0xbe535cb6	-0.20640835
16	0x3d22e377	0.03976771
17	0xbd9b164b	-0.075726114
18	0x3df48a7e	0.11940478
19	0x3d0b4ef6	0.03401085
20	0xbdc864d8	-0.097848594
21	0x3d89a2f8	0.06720537
22	0xbda1eac1	-0.07906104
23	0xbd955ed2	-0.07293476
24	0x3e154697	0.14577709
25	0x3e78ce4b	0.24297445
26	0x3daa22c1	0.0830741
27	0xbd893a06	-0.0670052
28	0x3bdd55d1	0.006754615
29	0xbd81f359	-0.06345243
30	0xbe7a2563	-0.24428324
31	0x3d417e51	0.047239605
32	0x3db1845f	0.08667826
33	0x3d334a9b	0.04377232
34	0x3dd9aad6	0.106282875
35	0xbd1d9767	-0.038474467
36	0x3caf5f54	0.02140776
37	0x3d62de9d	0.05538808
38	0xbd8024ea	-0.06257041
39	0x3d43d13d	0.047806967
40	0xbe6533b7	-0.22383009
41	0xbd9f7642	-0.07786228
42	0xbcf2556c	-0.029581748
43	0xbe2d8642	-0.16945747
44	0x3d005162	0.031327613
45	0xbd19e452	-0.03757126
46	0x3c9d632b	0.019212326
47	0x3e3707a1	0.17874004
48	0x3d834a4d	0.06410656
49	0x3c7af849	0.015317985
50	0x3d62c53a	0.05536387
51	0xbd31f168	-0.043443114
52	0x3e2c6689	0.16835989
53	0x3d845789	0.064620085
54	0xbbbfc119	-0.0058518765
55	0x3d2004e0	0.03906715
56	0xbdbee280	-0.09320545
57	0xbc4b3a77	-0.012404076
58	0x3dac6d19	0.08419246
59	0xbe8df147	-0.27723143
60	0x3d95dcc7	0.073175006
61	0xbe12fd73	-0.14354496
62	0x3d5a3c3f	0.05328011
63	0xbdbaeae9	-0.09126837
64	0xbe2277f9	-0.15866078
65	0xbe054e18	-0.13018072
66	0x3cf0bf17	0.029387994
67	0x3da08a64	0.07838896
68	0x3d94ae03	0.072597526
69	0x3d5c878d	0.05384021
70	0x3cb2fecd	0.021850014
71	0x3e21b2ec	0.1579091
72	0xbcf379ed	-0.029721225
73	0xbba25cda	-0.0049549164
74	0xbe3fcd9a	-0.18730775
75	0x3de09ef8	0.10967821
76	0xbe4db759	-0.20089473
77	0x3d34336f	0.043994363
78	0xbe48b292	-0.19599369
79	0x3ddc0842	0.107437626
80	0x3e0d13eb	0.1377713
81	0xbe182710	-0.14858651
82	0xbcf0ff9b	-0.029418757
83	0x3cc388bb	0.02386891
84	0xbde6a062	-0.11261059
85	0x3d95d155	0.073153175
86	0xbd88451d	-0.06653807
87	0xbd31d4f4	-0.04341598
88	0xbd986ebe	-0.074429974
89	0xbda8e4e5	-0.08246783
90	0x3d1eba9f	0.038752194
91	0x3cf300a9	0.0296634
92	0x3d25efd3	0.040511917
93	0xbcc6fe8b	-0.024291297
94	0x3e16d54f	0.14729808
95	0xbe8cf4a4	-0.27530396
96	0xbd85c11d	-0.06530974
97	0xbd692a32	-0.056925006
98	0x3d2be2e8	0.04196444
99	0x3c1cf8eb	0.009580831
100	0xbab6029b	-0.0013886275
101	0x3da67a9c	0.08128855
102	0xbd7ece4a	-0.06220845
103	0x3d94aacb	0.07259139
104	0xbda65e7e	-0.08123492
105	0x3cb84e81	0.022498371
106	0x3e2c26ba	0.16811648
107	0x3db2a48d	0.08722792
108	0xbda0ac99	-0.078454204
109	0xbcb518aa	-0.022106487
110	0x3ddbb52d	0.10727916
111	0xbcf5f3bb	-0.030023446
112	0x3e0c4e69	0.13701786
113	0x3d9e06b0	0.07716119
114	0xbcee30b4	-0.029075958
115	0x3d98b9f8	0.07457346
116	0xbd0725ec	-0.03299515
117	0x3daea2fb	0.0852718
118	0xbd9bdabd	-0.076100804
119	0xbc7ee184	-0.015556697
120	0x3c28937d	0.01028907
121	0xbe58d80d	-0.21176167
122	0x3d11a15f	0.035554286
123	0xbe64de93	-0.2235053
124	0xbd1582e5	-0.036501784
125	0xbb0aa1aa	-0.0021153488
126	0xbcbbb7f3	-0.022914862
127	0xbe29418a	-0.16528907
128	0xbe12f945	-0.14352901
129	0xbcbdeb4e	-0.023183491
130	0x3c82663a	0.015917886
131	0x3d08ad45	0.033368368
132	0xbe5f9989	-0.21835913
133	0xbccbfd56	-0.024901073
134	0xbdc319b9	-0.095263906
135	0xbcd751ae	-0.026284065
136	0x3dd6c912	0.1048757
137	0x3ddce8fe	0.10786627
138	0xbe74a55f	-0.23891209
139	0x3bbafd72	0.0057064826
140	0xbc21f02e	-0.009883923
141	0xbe43cc8f	-0.19121002
142	0x3d96e123	0.0736716
143	0xbdba73ea	-0.0910414
144	0xbd80a6c7	-0.0628181
145	0xbd06928c	-0.0328546
146	0x3d1d7240	0.038439035
147	0x3cc484ef	0.023989169
148	0xbd8d777a	-0.06907554
149	0xbd9e3757	-0.07725399
150	0xbcda1f94	-0.026626386
151	0xbe525b45	-0.20542629
152	0x3db3dd85	0.08782486
153	0xbcf3e7a6	-0.029773545
154	0x3e2a462a	0.16628328
155	0xbe81464e	-0.2524895
156	0x3dd5d96c	0.104418606
157	0xbc81515e	-0.01578587
158	0x3de1f9da	0.110339835
159	0xbd6919e1	-0.056909446
160	0xbe13c874	-0.14431936
161	0xbd891e6d	-0.066952564
162	0xbe44c566	-0.19215927
163	0xbdb4f749	-0.088362284
164	0x3c913b64	0.017728515
165	0xbc0d6e4c	-0.008632254
166	0x3defc0d6	0.117067024
167	0xbdac9b59	-0.08428068
168	0x3e624925	0.22098215
169	0xbca258c3	-0.019817716
170	0x3d82625c	0.06366417
171	0xbd2621dc	-0.040559635
172	0x3cf157ba	0.029460777
173	0x3d81afea	0.06332381
174	0xbd55b237	-0.052171912
175	0xbdc0d4b3	-0.09415569
176	0xbd8c38cf	-0.06846773
177	0x3b9c1b50	0.004763998
178	0xbd8d3f14	-0.06896797
179	0x3c27380f	0.0102062365
180	0xbe4e3cfe	-0.20140454
181	0xbdc11594	-0.09427944
182	0xbad31649	-0.0016104664
183	0x3e629469	0.22126926
184	0xba15b1d9	-0.00057104003
185	0xbe0f44d9	-0.13991107
186	0x3e01f18c	0.12689799
187	0xbe009080	-0.12555122
188	0x3d5ac154	0.05340703
189	0x3d970625	0.07374219
190	0x3c11f014	0.008907337
191	0xbd75fd32	-0.06005592
192	0xbbe8a335	-0.007099534
193	0x3d847761	0.06468082
194	0x3da20fc8	0.07913166
195	0xbe42ff53	-0.19042711
196	0xbd6d0c3f	-0.057873007
197	0x3ceceac9	0.028920548
198	0xbdb45ad1	-0.08806384
199	0x3e08c4f5	0.13356383
200	0x3ced6423	0.028978413
201	0xbe99d470	-0.3004489
202	0x3dd81eff	0.10552787
203	0xbe45ab4d	-0.19303627
204	0x3e2d0082	0.16894725
205	0xbd7d5c80	-0.061855793
206	0xbea87ce9	-0.329078
207	0xbd83b40a	-0.06430824
208	0x3de6a6a7	0.11262255
209	0x3e1ad74a	0.15121189
210	0x3da3635f	0.07977938
211	0x3cd2d5f8	0.025736794
212	0xbde5c383	-0.112189315
213	0xbbd271b3	-0.0064222454
214	0x3cefb83d	0.029262656
215	0xbd8201f8	-0.06348032
216	0xbc822360	-0.015886009
217	0xbdafff9b	-0.08593675
218	0xbe20d537	-0.15706335
219	0x3ca2ad4d	0.019858027
220	0xbeb970d4	-0.36218894
221	0xbd793f77	-0.06085154
222	0xbe89119b	-0.26771244
223	0x3d2d6eb4	0.042341903
224	0xbc7631a7	-0.0150264865
225	0xbd34ab88	-0.044108897
226	0xbbec3d0a	-0.007209425
227	0x3b265b85	0.002538414
228	0x3e2bc8bd	0.16775794
229	0xbe8e0748	-0.2773993
230	0x3e70a9e1	0.23502304
231	0x3dcd5e95	0.10027806
232	0x3d5ad892	0.053429194
233	0x3e258ffe	0.1616821
234	0xbb90f7b7	-0.004424061
235	0x3d9a5c04	0.07537082
236	0x3c648b5b	0.013949241
237	0xbda60d78	-0.08108038
238	0x3dd31127	0.10306006
239	0xbcdc3697	-0.0268815
240	0x3dcfacdd	0.10140393
241	0xbcf730d0	-0.030174643
242	0xbcb7bd01	-0.022428991
243	0x3d356b12	0.044291563
244	0x3cc42240	0.023942113
245	0xbdcae7dd	-0.09907506
246	0xbdaae41b	-0.08344289
247	0x3d118d5c	0.0355352
248	0xbbf2ecbf	-0.0074134762
249	0x3e037d37	0.12840734
250	0x3cef77e8	0.02923198
251	0x3cde8c91	0.027166637
252	0xbe6f42b6	-0.23365292
253	0x3ae4c158	0.001745264
254	0xbd32f0fb	-0.043686848
255	0x3b9f9619	0.004870188

bias f4 [10]
0	0xbd165f28	-0.03671184
1	0xba55a096	-0.00081492343
2	0x3c8d3338	0.017236337
3	0xbcb91146	-0.022591244
4	0xbd8eeb68	-0.06978494
5	0x3b69e0f7	0.0035687068
6	0xbdd48ba8	-0.103782
7	0xbcb4e437	-0.022081478
8	0x3e06555a	0.13118497
9	0xbd254ee2	-0.04035843
