model.pt (torch, 904360 bytes, 8 tensors)

weight f4 [32, 1, 3, 3]
000000 30 1e 95 3d ab 84 d0 bb 15 b7 5b 3e be 62 19 3d
       0.072811484 -0.0063634715 0.21456559 0.037447684
000010 c7 78 f5 3d 2c 3f 14 be 7a d1 02 bd 94 0f 81 be
       0.11985927 -0.14477223 -0.031938054 -0.25207198
000020 75 a7 9c 3e 36 8f 0f 3e 3a a7 25 be cc 2a 34 3e
       0.3059651 0.14019474 -0.16177073 0.1759445
000030 5d 1b b5 3c 0c 01 05 be 5e 21 92 3d 9b e7 77 3e
       0.022107774 -0.1298868 0.071352705 0.24209444
000040 7b 87 bf 3c 4a 1b 05 be 46 43 ac bc 46 f6 66 3d
       0.023380032 -0.12998691 -0.021028172 0.05638721
000050 5b 5a 92 be 94 47 fc 3d ad fa c1 3d ee b0 ee 3d
       -0.2858456 0.1231834 0.09471641 0.116548404
000060 fc 69 38 3e 58 80 a9 3b 9b b2 85 3d cd 9c 84 3e
       0.1800918 0.0051727705 0.06528207 0.2590088
000070 13 a8 ef 3e 79 fa e1 bd a1 e8 1e 3e be 61 64 3e
       0.46807918 -0.11034102 0.15518428 0.2230291
000080 82 5b a8 be 93 32 1c bd 57 8b 01 bf 5b af 93 be
       -0.32882315 -0.03813417 -0.5060324 -0.28844723
000090 6f a2 e0 bc 11 44 75 3e 33 69 d7 be 2c 95 f0 bd
       -0.027421204 0.23951747 -0.42072448 -0.11747202
0000a0 57 54 94 3e d0 5b b5 3e d8 95 2a 3e a7 74 93 be
       0.28970596 0.3542161 0.16658723 -0.28799936
0000b0 71 d1 60 bd 0d 39 a9 3e 59 aa 0a 3e a8 d0 0b bf
       -0.05488724 0.3305134 0.13541545 -0.5461526
0000c0 9d ea dc be fe 0b 8c bf 14 39 98 3d 53 3b 0e bf
       -0.43147746 -1.094116 0.07432762 -0.5555927
0000d0 24 17 8b 3e b9 34 83 3e 64 ee 82 bc 29 94 b2 be
       0.27166092 0.25626162 -0.015982814 -0.34878662
0000e0 d4 ce 14 be d8 6a a1 3c 55 87 b1 3e d4 15 9b 3e
       -0.14532024 0.019704267 0.34673563 0.3029009
0000f0 1c e9 9b be c2 7b 11 3e 69 a7 90 be 50 11 e2 bd
       -0.30451286 0.14207366 -0.28252724 -0.11038458
000100 f3 e0 a2 3d 81 5b 3e 3e 3a 30 95 3e f7 da aa 3e
       0.07953062 0.18589593 0.29138356 0.33370182
000110 ce 29 c2 3e d9 63 60 be 9c 5b e6 be cc 3f c9 be
       0.3792252 -0.21913089 -0.44991767 -0.39306486
000120 72 bc 72 3e 05 59 6a be e4 07 09 bf e6 02 24 3e
       0.23704699 -0.22885521 -0.53527665 0.1601673
000130 97 37 18 be 75 36 03 bf 4a 9e f3 3e 98 aa fd 3e
       -0.14864956 -0.5125497 0.47581702 0.49544215
000140 6c 48 20 3c be 8d c7 3e 16 c5 87 be 86 35 e0 be
       0.009782892 0.38975328 -0.26517552 -0.43790835
000150 da 0b 90 3e 06 ad b0 be 0a 1f 19 bd 4e 5f cf 3e
       0.28134042 -0.34507006 -0.037383117 0.405024
000160 a0 22 5f be 1a 8b 2d 3e dc 06 98 3c 1c bf 3a 3d
       -0.21790552 0.16947594 0.018557958 0.045592412
000170 e5 cf 04 be 80 37 e6 3d 22 e8 94 3e 21 b2 90 3e
       -0.1296993 0.112410545 0.29083353 0.28260902
000180 25 cf 86 be 89 f3 a1 be 31 eb aa bc bd 2a 08 be
       -0.26329914 -0.31631115 -0.020864101 -0.13297553
000190 5a fd f9 bc c7 70 e1 3e 8b da d3 3e c6 73 39 be
       -0.030516315 0.44031355 0.41377673 -0.1811057
0001a0 db 92 a9 3e dc 77 9b be 2a 5e 8e be 3f 6d fe be
       0.33119854 -0.30364883 -0.27806216 -0.49692723
0001b0 2d f1 d1 be e7 89 10 3e 6f a3 2f 3e 74 bc 00 bf
       -0.41004315 0.14115106 0.17152189 -0.50287557
0001c0 4b 08 fd bd 29 a6 b7 3e 05 da 2a be 24 08 b7 3e
       -0.123550974 0.35868958 -0.1668473 0.35748398
0001d0 ed 0e 85 3e 20 91 02 3d 75 e7 05 3f 5d 08 9a 3e
       0.2598795 0.031876683 0.523063 0.30084506
0001e0 21 d6 b1 be 71 0f 38 3d e8 36 c8 3e 68 47 b1 be
       -0.3473368 0.0449366 0.3910439 -0.3462479
0001f0 56 b6 1c bf fa d8 11 ba 9d 08 a0 be 60 90 72 be
       -0.6121572 -0.0005563643 -0.3125657 -0.23687887
000200 d2 7e b6 3e 23 20 ff be 49 dc 24 be 99 69 3c 3e
       0.3564363 -0.49829206 -0.16099657 0.18399657
000210 a4 9c 89 be fc f4 9a 3e 72 2f f7 3e 16 1c c8 3e
       -0.2687732 0.30265033 0.48278385 0.39083928
000220 3a 15 3d 3b 3f 90 ef be ca 06 10 3f 9e 26 c6 be
       0.0028851763 -0.4678974 0.5626036 -0.38701338
000230 bd 65 ad be a5 37 39 bd 6e d1 b0 be b4 d4 22 be
       -0.33866683 -0.045219082 -0.34534782 -0.15901452
000240 d5 e3 0c bf cf 8a c9 be c5 e7 02 be 47 3c a8 3c
       -0.55035144 -0.39363715 -0.12783726 0.020536555
000250 8f fb b5 bd 27 3b 18 bf 50 16 db 3e a3 bc e2 bc
       -0.088858716 -0.5946526 0.4279046 -0.02767784
000260 2a ca 1a 3d 51 11 40 3d 9e 2e e2 3e 71 d9 83 be
       0.037790455 0.046891514 0.4417619 -0.25751832
000270 7b b4 1f 3e 48 7d be 3e 8d 86 cc be 7f 05 2a be
       0.15596192 0.37204957 -0.39946404 -0.16603659
000280 db 74 ce 3e 89 92 a5 be f3 d1 8c 3e 29 65 8e 3e
       0.4032353 -0.3233836 0.2750393 0.27811554
000290 75 3d fb bd 58 24 1c be ab 0c be 3e be 10 a7 3e
       -0.122675814 -0.15248239 0.3711904 0.3262996
0002a0 4b 31 3c be 85 12 8f 3e 5d b6 42 be f1 72 ed 3e
       -0.18378179 0.27943817 -0.19014879 0.46376756
0002b0 34 62 92 3d ec 61 4d be 73 de 90 3e 64 bc bd bd
       0.07147637 -0.20056885 0.28294715 -0.09264448
0002c0 9d e1 10 bf 54 3c 95 be 3e b3 03 bf 92 0a 85 be
       -0.5659426 -0.2914759 -0.51445377 -0.25984627
0002d0 89 5d 55 3e a7 88 c3 be 39 cb 02 bf 74 32 29 be
       0.20836462 -0.38190195 -0.51091343 -0.16523153
0002e0 2b f5 05 be 04 d0 46 be 16 a6 e8 3e fb ac a5 3e
       -0.13081805 -0.19415289 0.45439214 0.32358536
0002f0 a0 40 f7 3e 6c c4 98 bd e4 c4 84 3d 26 7f 29 3e
       0.48291492 -0.074593395 0.064828664 0.1655241
000300 18 fa 89 be 2b 7b a1 be 00 61 a4 3c a0 5d 7d bd
       -0.2694862 -0.31539282 0.020065784 -0.061856866
000310 76 72 6f be 7e fa 48 be f4 ef 3b be 4f a9 12 bf
       -0.23383507 -0.19626805 -0.18353254 -0.57289594
000320 5e 74 37 3b 06 32 82 3e ef cb 6c bd 99 14 ea bd
       0.0027992944 0.2542879 -0.057811674 -0.1142971
000330 1d 72 db 3e 56 e8 db 3d 8b 53 30 3d 84 93 c4 3e
       0.428605 0.10737674 0.043048423 0.38393795
000340 8d dd a4 3e 43 86 41 3d 06 e5 84 bd 0f d0 06 3b
       0.3220028 0.047247183 -0.06488995 0.002057079
000350 6f 93 6c 3d a1 e9 f4 be 49 69 3f 3e e9 3d ce be
       0.05775779 -0.47834495 0.18692507 -0.4028161
000360 c5 36 18 3e 21 ef 3e 3e 25 aa e4 3d fa 07 33 be
       0.14864643 0.18645908 0.11165265 -0.17483512
000370 61 05 07 bf 8f 88 ef be 6f 76 03 3e 03 42 61 3e
       -0.5274258 -0.46783873 0.12838148 0.21997838
000380 4a 48 c8 3e 7d 7e 89 3e f5 1b 16 3e 2e e1 c2 be
       0.39117652 0.26854315 0.14659102 -0.38062423
000390 47 cd 92 3e 34 0a 7b be 89 51 c8 be f0 c2 29 3e
       0.2867224 -0.24515611 -0.39124706 0.16578269
0003a0 be b4 2f 3e fd d6 2b 3d 3e b0 0c 3e d2 8c 20 3e
       0.17158791 0.041953076 0.13739106 0.15678719
0003b0 f1 5b c5 be 83 56 4c 3e ea 27 00 be 3d ae 60 be
       -0.38546708 0.19954877 -0.12515226 -0.21941467
0003c0 e2 0a f3 3c 51 e3 c9 bd 01 33 8f 3e 21 e5 a5 be
       0.029668275 -0.0985781 0.279686 -0.32401374
0003d0 37 1d cc be 70 84 a8 be 95 1e 1d be c9 85 82 3e
       -0.3986604 -0.32913542 -0.15343697 0.25492695
0003e0 45 af e5 3e 54 49 d7 3e 30 a6 e2 3d fa c5 1b bd
       0.44860283 0.42048132 0.11066854 -0.038030602
0003f0 8e 23 6d 3e 73 92 fb bd 14 6a b2 3e ca 44 e5 be
       0.23158094 -0.12283792 0.34846556 -0.44779044

bias f4 [32]
000000 7e 55 20 be b2 77 22 be f0 81 04 be ee 76 ba bc
       -0.15657613 -0.15865973 -0.12940192 -0.022761788
000010 95 37 83 bd ec 8c 49 3e b8 18 34 bb b2 78 fc bc
       -0.06407086 0.19682664 -0.0027480554 -0.03081927
000020 8e 28 ed bc 90 de c9 bc 02 cd 4b bd 91 a6 ba 3b
       -0.028950002 -0.024642259 -0.049756058 0.005696126
000030 0a ad 0e be a6 94 11 bd d2 17 d2 bc 86 d0 8f 3c
       -0.13933197 -0.035542153 -0.025646124 0.017555486
000040 5d 92 81 3e 97 90 c6 bc 72 04 92 be e9 b0 64 3d
       0.2530698 -0.024238868 -0.28519017 0.055832777
000050 1d 57 40 bb 9a cb 8b be 67 1b cd 3c 50 c5 ee bd
       -0.0029348799 -0.27303773 0.02503748 -0.11658728
000060 8f 00 40 bd 5d c8 06 be 0c cb 16 be 2c 2d 98 bd
       -0.046875533 -0.1316237 -0.14725894 -0.07430491
000070 ce a8 c7 3e 3f 41 88 be b9 f4 06 be df 6b d1 3d
       0.38995975 -0.2661228 -0.13179292 0.10225653

weight f4 [64, 32, 3, 3]
000000 aa 02 b6 bd 69 44 74 3d e3 9e 54 bd a3 58 e7 bc
       -0.08887227 0.059635554 -0.05190934 -0.028240507
000010 73 2e ba ba d4 4b 43 bd e2 d8 83 bc ed 3c c1 bd
       -0.0014204517 -0.047679737 -0.016094629 -0.09435449
000020 c4 4a ea bd 06 fe de bc d2 2e 68 3d cf 02 25 bd
       -0.11440042 -0.027220737 0.056685276 -0.04028588
000030 a8 16 e2 3b e5 91 d8 bd 2e 14 bc bd 54 ef 21 bd
       0.0068996735 -0.10574702 -0.091835365 -0.03953488
000040 43 35 1b be b2 f3 5d be 5a 87 39 bd f6 f6 bf 3d
       -0.15157036 -0.21674994 -0.045295097 0.09373276
000050 b4 fb 43 bd 2e 84 f2 3c aa 3e 01 3d 83 8f fa bd
       -0.047847465 0.029604044 0.0315539 -0.12234404
000060 bb 16 29 3d fa 2f 1c be f7 28 56 be 79 75 99 be
       0.041281443 -0.15252677 -0.20914064 -0.29972437
000070 83 4c 53 bc 8b 90 6b bd 90 d2 0d 3e 74 94 db 3d
       -0.01289666 -0.057510894 0.13849854 0.107216746
000080 b5 94 6d bd 94 72 ec 3d 37 10 56 3c 2f 99 29 be
       -0.058003146 0.115452915 0.013065389 -0.16562341
000090 95 34 37 bd fe 93 ca 3c 9a 2b c3 bc d8 fa 2b bc
       -0.04472788 0.024728771 -0.023824502 -0.0104968175
0000a0 bf 13 a4 3d f4 01 76 bd af ef b2 3d 37 c5 cc bd
       0.08011579 -0.060060456 0.08737122 -0.09998553
0000b0 99 ec 59 be c6 01 20 3e 79 c8 0d be d2 bd c1 bd
       -0.21281661 0.15625677 -0.13846005 -0.094600335
0000c0 1b 81 b5 bd 42 d2 c6 3d 6c 95 24 be 85 f4 83 3d
       -0.088625155 0.09708072 -0.16072625 0.06443123
0000d0 5b c3 89 bd 27 db 1b be 04 75 a1 3c 76 40 8d bd
       -0.06726714 -0.15220319 0.019709118 -0.068970606
0000e0 a0 a6 11 bd c9 09 12 bb e5 ce 88 bd 47 22 f2 3d
       -0.035559297 -0.0022283664 -0.06680087 0.11822944
0000f0 8e cc 93 3d 32 50 78 bd 6c 31 b5 be 49 40 8b bd
       0.0721675 -0.060623355 -0.35389268 -0.06799371
000100 6e 3f 2f 3d 89 b2 90 bd 19 2d 28 bd 0b 96 61 bd
       0.0427851 -0.07065303 -0.041058633 -0.055074733
000110 e8 ef 4f bc 83 72 7e 3d 63 b8 b7 bd dc ab 1b be
       -0.012691475 0.062120926 -0.08970716 -0.15202278
000120 57 99 d2 bd 25 fd 77 bd ac 6f de bb 52 a2 b4 bd
       -0.102831535 -0.06054415 -0.0067882147 -0.08820023
000130 e2 c9 a3 bc 5b 61 16 be 10 c8 70 bc f3 03 91 3b
       -0.019993726 -0.14685576 -0.014696136 0.0044255196
000140 e8 26 1b be 03 d5 7c be a0 96 01 bd 0a 08 a7 3d
       -0.1515156 -0.24690633 -0.031637788 0.0815583
000150 67 76 ac 3c 8a 4c 22 3e 49 4d 04 be 1a f8 ad 3d
       0.021052552 0.1584951 -0.12920107 0.08494587
000160 92 75 7b bc 0d 47 a7 be f6 34 d6 bd 58 04 51 3c
       -0.015347855 -0.32671395 -0.1045932 0.012757383
000170 e4 bd a2 bc 6d 3f 07 3d eb b4 ac bc b8 63 14 bd
       -0.019865938 0.033019472 -0.021082362 -0.03622791
000180 a8 fb bb 3d 84 2d 64 3d 46 1a 3c be 44 6d 28 bc
       0.09178859 0.05570747 -0.18369398 -0.010279957
000190 d4 11 05 3c 3f 48 f7 bd d5 95 86 3c 20 67 c9 3d
       0.008121926 -0.12074327 0.016428867 0.09834123
0001a0 2b 31 8b 3d 16 50 46 3d d7 2d f4 3c 97 84 d5 3d
       0.067964874 0.04841622 0.029807014 0.1042568
0001b0 1d 4c 4c 3e 15 ac b8 bc d4 3c 26 3d e1 ce 75 3d
       0.1995091 -0.022542993 0.040585354 0.06001175
0001c0 65 0c 1b 3c 17 35 b9 bc 56 59 c5 bd 47 b2 85 be
       0.009463404 -0.022608323 -0.0963618 -0.26112577
0001d0 cb a4 2f be 73 6f 17 be 70 2a 3c 3d 80 b4 2c bc
       -0.17152707 -0.14788608 0.04593891 -0.010541081
0001e0 2b d6 13 be 5b 50 f1 bc 8e 1c b1 3c f3 14 67 be
       -0.14437167 -0.029457262 0.021620061 -0.22566585
0001f0 d1 f1 38 be 0b ff f2 3c 43 5e 6c 3e 9b 29 c7 bc
       -0.18060996 0.02966263 0.23082833 -0.024311831
000200 55 4e b3 3c 3e 16 97 3d 05 46 7a bb 9c ac 9c ba
       0.021887938 0.07377289 -0.0038188708 -0.0011953297
000210 10 0e bd bd 3d f8 b8 be 69 e8 20 be 96 97 38 be
       -0.09231198 -0.3612689 -0.15713657 -0.18026575
000220 49 4d b3 3d e1 fe fe 3d 90 b6 99 3e 3c ba 17 3e
       0.08754975 0.12450958 0.30022097 0.14817137
000230 f1 37 08 be fe 6a 4d 3e 0a cb 93 3d 6d 4e 18 be
       -0.1330259 0.20060346 0.07216461 -0.14873667
000240 25 6f 2b 3d b9 f3 4d 3d 83 32 95 bd ed 41 00 be
       0.041854043 0.05028126 -0.07285025 -0.12525149
000250 ec cb 97 bd 84 13 03 3c e4 0b 2f be 87 4f 29 3d
       -0.07411942 0.008000258 -0.1709438 0.04133561
000260 a2 ab 72 bd 77 1c ba bd 7f 2f e0 3d 56 51 74 bd
       -0.059245713 -0.090874605 0.10946559 -0.05964788
000270 2c fc a7 3d ec ee ca 3d d2 e7 43 be 8e 5d 03 3d
       0.08202395 0.09908852 -0.19131401 0.032071643
000280 1c 9e 31 be e0 6c a0 bd 15 83 a7 bc b3 e6 76 3d
       -0.1734547 -0.07833266 -0.020448247 0.060278606
000290 3d 7f 4f bd 14 54 97 3c 3f dd f8 bd dc 6c b5 bc
       -0.050658453 0.018472709 -0.12151574 -0.022146635
0002a0 39 80 a1 bd 3e fb 27 be 2b c5 04 be 1e 5d 94 be
       -0.07885785 -0.16404435 -0.12965839 -0.28977293
0002b0 a8 f7 96 3d da 84 01 3e 5f dd 8f 3e 49 56 38 3e
       0.073714554 0.12648335 0.2809858 0.18001665
0002c0 8f db c6 bd a5 68 26 3e f1 61 4d 3d a4 68 3c be
       -0.09709846 0.16250856 0.050142232 -0.18399292
0002d0 a1 a5 f5 3c 84 7a 47 be 79 a8 4f bd df ac 44 be
       0.029986205 -0.1948033 -0.050697777 -0.1920657
0002e0 8b bf f5 bd 3e a8 81 be 07 32 18 bd df 6c 3d bd
       -0.119994245 -0.2532367 -0.037157085 -0.046246406
0002f0 d4 fd 81 be b0 79 07 bd 74 3b 1f 3c 8d 1d 4d bd
       -0.25388968 -0.033075035 0.009718765 -0.05007701
000300 74 7d e0 bc 9c ab 1b bd 1d 64 36 3d 62 c0 db bc
       -0.02740357 -0.038005456 0.04452907 -0.026825134
000310 68 68 c9 3b 64 e5 67 bc bc e8 c4 3d e8 6a 0e 3d
       0.0061464794 -0.014153812 0.09614703 0.034769922
000320 f2 12 aa bd 2c 67 36 3d aa 02 57 be d8 d3 ad be
       -0.08304395 0.044531986 -0.2099711 -0.33950686
000330 2a 93 9a be 83 74 10 be a2 bd 9d bd 3e 46 48 be
       -0.30190402 -0.14106946 -0.07702185 -0.19558045
000340 07 54 52 3d d4 69 c1 bd 0a dd 63 bc 36 e8 ce 3d
       0.051349666 -0.09444013 -0.01390768 0.101028845
000350 8d d9 52 bd fc da 17 3d 1c ec 31 bd c9 08 2c be
       -0.051477004 0.037074074 -0.043438062 -0.16800226
000360 5d f9 9a bd 6b ee 84 be f1 ba 4e bd 23 32 31 be
       -0.075670935 -0.25963148 -0.05047125 -0.17304282
000370 1f 77 80 bd a9 82 30 be d5 5b 85 3c 75 12 21 be
       -0.062727205 -0.17237343 0.01627914 -0.15729697
000380 6c 69 8a be b0 62 89 be e4 2a 26 3d af c6 99 3d
       -0.27033556 -0.26833105 0.040568247 0.07508599
000390 0f df fa 3d f1 d6 d7 3d 91 9c 2a be 73 4f 4b 3d
       0.12249576 0.10539044 -0.16661288 0.049636316
0003a0 5e 3f e3 bd 6c 8f 22 be 8c 44 f5 bd 47 30 38 3c
       -0.11096071 -0.15875024 -0.11975965 0.011241979
0003b0 f3 23 6d 3d 1e 07 10 3d a3 69 6e 3c 90 b3 47 be
       0.057895612 0.035163037 0.014551553 -0.19502091
0003c0 52 70 95 3d 5a f2 ff bd ed 66 33 be 36 ac 35 3e
       0.07296814 -0.12497397 -0.17519732 0.17741475
0003d0 90 86 7d bd e9 da 39 be a0 58 8e 3d 98 c9 37 be
       -0.061895907 -0.18149914 0.069504976 -0.17947996
0003e0 f4 4a b9 bd 4f de 15 be dc a8 2e be 21 ae 96 be
       -0.09047499 -0.14635585 -0.17056602 -0.29429725
0003f0 6d 73 23 be 64 89 2b be e8 30 0d 3c c0 e8 11 be
       -0.15962 -0.16751629 0.008617617 -0.14248943

bias f4 [64]
000000 e0 32 2f bc 91 70 ce 3c 01 3a 92 bd 32 c3 20 bc
       -0.010693282 0.02520016 -0.071399696 -0.009812163
000010 66 e8 9d bd 2c c2 85 bb 8d 7d 56 bb f4 f6 16 bc
       -0.07710342 -0.004081985 -0.0032728643 -0.009214152
000020 68 3b bc 3b 62 87 5d bc 98 e3 82 3c 61 95 99 bd
       0.0057443865 -0.013521047 0.015977666 -0.07499195
000030 b9 82 af 3c ef 56 8c bc 09 76 90 bc 3c e0 d4 3c
       0.021424638 -0.017131297 -0.017634409 0.02598583
000040 f1 1e cb bd 07 34 15 be b0 09 26 bd 28 51 f3 bc
       -0.09918011 -0.14570628 -0.040536582 -0.029701784
000050 d8 d7 ad bb e6 b1 a9 bd 58 0e 2d bc 71 fd a9 bd
       -0.0053052716 -0.082858846 -0.010562502 -0.08300293
000060 66 b1 15 be 08 3f a1 bd 6b bd 9c bd ea 61 50 3d
       -0.14618453 -0.078733504 -0.07653316 0.050874628
000070 16 d2 39 bd 31 0f ad bd 90 3a d3 bd 75 b2 36 bc
       -0.04536637 -0.08450163 -0.10313904 -0.011150946
000080 31 5d f0 bc e5 f2 03 bd 87 0e 21 3d a1 56 23 3d
       -0.029341312 -0.032214064 0.039320495 0.039877538
000090 87 d3 1b bd 84 22 13 bb f8 4b 21 bd 67 b6 83 bd
       -0.038043525 -0.0022450993 -0.03937909 -0.06431275
0000a0 51 46 5c 3c 3d 92 5e bd a6 55 76 bd d1 c2 b3 bd
       0.013444499 -0.054338682 -0.060140274 -0.08777393
0000b0 11 02 00 bd be cd 75 bd 53 a5 bf 3b 3b f2 38 bc
       -0.03125197 -0.060010664 0.0058485656 -0.011288221
0000c0 73 d3 b1 bd 31 d3 b3 bd cb 95 c8 bd cb 2d e9 bd
       -0.08682909 -0.08780516 -0.09794196 -0.113856874
0000d0 aa ed bf bd 77 ce e8 bd b3 9a 41 3d 24 ee 90 bd
       -0.09371503 -0.11367505 0.047266673 -0.07076672
0000e0 4a da c1 bd af 27 dc bb 5f 58 4e 3d 11 75 d8 bc
       -0.094654635 -0.006718598 0.050377246 -0.02642301
0000f0 5e 0b 3f bd a8 a2 84 3a 1b 6e 36 bd c7 6c 0f 3d
       -0.0466417 0.0010119276 -0.0445386 0.035015848

weight f4 [128, 1600]
000000 6a ae a5 3c 2c 50 6d bc da 38 63 be 09 4c 44 be
       0.020224769 -0.0144844465 -0.22189656 -0.1916963
000010 1b 32 13 bb dd d8 e8 bd cb 6d 1d 3d 8a cd 57 3c
       -0.0022460285 -0.113694884 0.038434785 0.013171563
000020 e5 11 fb bd ee c1 e6 bc 38 53 80 bc b3 00 06 bc
       -0.122592725 -0.028168645 -0.015664682 -0.008178878
000030 bf a6 8b bb 5e 68 4c bc d3 e2 b1 3b 1d 82 f6 3d
       -0.004261821 -0.012476055 0.005428651 0.12036536
000040 55 dd 4c 3e f8 f3 50 bc 25 a1 9e bc 99 e3 32 3d
       0.20006306 -0.012753479 -0.01936395 0.043674085
000050 88 c0 23 3e 65 45 15 3e b3 78 c0 3d c3 8f b6 3c
       0.15991414 0.14577253 0.093980215 0.022285348
000060 21 a3 a6 bd 19 e7 b2 3d 13 92 e7 3c 4e b1 8e bc
       -0.08136583 0.08735485 0.028267896 -0.01741853
000070 be c8 0d bc 18 03 17 bd 94 c5 fd 3c bf d2 3c 3e
       -0.008653818 -0.036868185 0.030978002 0.18439768
000080 a9 fd 4a 3e 1c 2b 00 bc 4a ff fc 3c ff 38 79 3d
       0.19823326 -0.007822778 0.03088345 0.06084537
000090 68 49 1f bd d2 76 ca 3e 10 af 1d bc 1d 7b 1e 3c
       -0.038888365 0.39543778 -0.009624258 0.009672907
0000a0 48 a8 56 bd 34 f5 2e be b7 33 e6 bd 13 34 9b bd
       -0.05240658 -0.17085725 -0.112403326 -0.07578292
0000b0 cd 85 8b bd 93 89 6f bd 80 63 0e be a4 cb 1b be
       -0.0681263 -0.05848081 -0.13905144 -0.15214401
0000c0 58 d6 7e bd f8 00 83 3d 0d 3f a6 bc ed da 22 bd
       -0.062216133 0.06396669 -0.020293737 -0.039759565
0000d0 60 38 f8 3b a3 5a 88 bc 51 89 04 3d 01 79 bc 3c
       0.00757508 -0.016644781 0.032357518 0.023006918
0000e0 61 a9 80 3c 10 a5 9b bc 4e bb 6d bc 66 72 9b bb
       0.015705766 -0.018999606 -0.014509989 -0.004743862
0000f0 f1 ab d2 3c 40 f7 80 bc 4c 8a 33 3c b8 cc d6 3c
       0.025716754 -0.015742898 0.0109582655 0.026220664
000100 df e3 7b 3c f9 2d 7b bc f4 27 a2 bc b6 98 5b 3b
       0.015374153 -0.015330785 -0.019794442 0.003350777
000110 12 fc 6e 3c 58 f6 a4 bc 80 12 4c bd 6d 47 ce b9
       0.014586465 -0.020136997 -0.04982233 -0.00039344598
000120 ff 04 29 bb d9 3b 18 ba cd aa 8e bb 68 4b ed 3a
       -0.0025790331 -0.0005807258 -0.004353857 0.0018104138
000130 80 f3 aa 3d 91 f7 e2 bd 2d b5 f0 bc 55 d5 78 3d
       0.08347225 -0.11082376 -0.029383266 0.060750324
000140 88 4d 67 bc 0c f8 80 3d 3c d2 51 3e 74 c5 18 3e
       -0.014117606 0.06297311 0.20490354 0.14919072
000150 a5 eb 97 3c b8 8f 36 ba e5 17 33 3d 91 1d 99 3d
       0.018544981 -0.0006964165 0.04372396 0.074763425
000160 73 c5 29 3d ca 70 61 3d 60 72 d6 bc 14 70 63 be
       0.041448068 0.055039205 -0.026177585 -0.22210723
000170 84 4e 3f be 83 35 07 be ee 75 29 3d 76 1f 06 3d
       -0.18682295 -0.13204007 0.041372232 0.032744847
000180 cf c8 88 bc ac cf 5d be 52 f5 c8 bc 0c 06 c1 3d
       -0.016697315 -0.21661252 -0.02453104 0.094249815
000190 40 69 3a 3c 47 5d e6 bc 46 92 80 be ba 94 40 be
       0.011377633 -0.02812065 -0.25111598 -0.18806735
0001a0 f5 2b 15 bc bc d8 a1 bd 30 f6 fb bd 49 86 14 bd
       -0.009104718 -0.07902667 -0.12302816 -0.036260877
0001b0 a8 81 0d be 69 78 22 bd 23 55 c4 bc 9e 63 c6 bd
       -0.13818991 -0.039665613 -0.023966378 -0.09686969
0001c0 16 65 4c bd 77 cd 3d 3d bc 47 f6 ba 34 c0 e2 3c
       -0.04990109 0.046338525 -0.0018789689 0.02767954
0001d0 44 9d 2f 3e 22 39 00 bd dd 6b bb 3c 0b d8 88 bc
       0.17149836 -0.031304486 0.022878582 -0.01670458
0001e0 b1 4b bd 3c c5 4e 39 3e 3b b2 e5 3d 30 73 b1 3b
       0.023107382 0.18096454 0.112156354 0.0054153427
0001f0 54 1a 38 bc f9 8a 48 3d f9 f0 87 3d 1d 47 08 be
       -0.011236746 0.04896066 0.06637759 -0.13308378
000200 12 e3 8a bd c8 61 86 3d 41 87 1e be 86 1c 46 be
       -0.067815915 0.06561619 -0.15481283 -0.19346818
000210 ec 13 35 ba 8d 8d ae bd de 25 20 3c c7 ff 59 bc
       -0.00069075706 -0.085230924 0.009774653 -0.013305611
000220 56 8f b9 bd 99 2c 4b bc 60 0a 76 3c dd e7 93 bc
       -0.09060542 -0.01240077 0.015017122 -0.018054897
000230 af 36 1e 3e 5b c0 2b 3e 89 1c bb 3d 9b 1f bf 3c
       0.15450548 0.16772597 0.09136302 0.0233305
000240 a5 28 36 bd 0d 19 83 3e 3f 3b a5 3d 9f 4b ac bd
       -0.044472355 0.2560505 0.08067941 -0.08412861
000250 69 e6 11 be 34 5f 05 bd e9 56 b7 bc f3 95 09 bd
       -0.14248051 -0.032561496 -0.02238031 -0.03359027
000260 f5 ae e2 3d a0 4a 6c 3d d6 3b 88 3d d9 49 31 bd
       0.11068527 0.057688355 0.06652038 -0.043283317
000270 e3 9e 25 3d 60 5f 72 3c 56 68 04 3d 7e dc 7f 3d
       0.04043473 0.014793247 0.032326065 0.062466137
000280 37 44 ce bd f6 bc 93 bd b8 16 c9 bd f0 5a 1a 3e
       -0.10071605 -0.07213776 -0.098187864 0.15073752
000290 25 2e 30 3d ae 98 a7 3d 7a a1 fc 3d b8 f3 84 3d
       0.043012757 0.08183418 0.12335487 0.06491798
0002a0 ca 2b 65 3d 81 2b 09 bd b1 98 ec 3d 6d 97 1a 3e
       0.055949964 -0.033488754 0.11552561 0.15096827
0002b0 99 61 9b 3d f5 06 5e 3d cb e3 06 be 3c 77 4c bc
       0.07586975 0.054205853 -0.13172834 -0.0124796
0002c0 af 8f bd bd ef 06 d8 bc 7b 77 af 37 59 f7 59 bd
       -0.09255921 -0.026370494 2.0917263e-05 -0.053214405
0002d0 60 ee 89 3d a7 b6 03 3e ff 17 3e 3e fe fb 44 3d
       0.067349195 0.12862645 0.18563841 0.04809188
0002e0 dd b0 2a 3d 94 43 f6 bd 35 e3 84 bd 82 51 52 3d
       0.041672576 -0.12024608 -0.06488649 0.051347263
0002f0 76 cc 57 3d 7e 33 4a 3d 7a 56 f5 bc 9f ff 3c 3d
       0.052685224 0.049365513 -0.029948462 0.046142217
000300 d3 c7 77 bb a9 c7 36 3d b4 b4 a5 bd ce 7d e5 bd
       -0.0037808314 0.044624005 -0.08091107 -0.11205636
000310 9f f7 c4 3d bd 09 6c 3d ed 08 f3 3c f0 ad 11 bc
       0.096175425 0.057626475 0.029667342 -0.008891568
000320 c4 bd d9 bb c7 30 bf bb 29 db b7 3c ef 3c 3f 3d
       -0.0066449363 -0.005834672 0.02244337 0.04668897
000330 6f a7 0b 3d e5 4c fe 3c 44 e2 02 be 27 a3 e3 bd
       0.034095224 0.031042526 -0.12781626 -0.11115103
000340 14 20 d0 bc 6c 75 07 3c f2 c8 a2 3d 6d a7 ac 3d
       -0.025405921 0.008267742 0.079484835 0.084303714
000350 ac 4c 54 3c 7e 70 1a bd a8 9e d5 3b 32 82 74 3c
       0.012957733 -0.037704937 0.0065191574 0.014923619
000360 55 42 af 3d d2 89 d3 3d 35 14 5a 3d 53 49 2c 3e
       0.08557574 0.103290215 0.053241927 0.16824846
000370 cb 12 54 bd 59 a9 1f 3d b0 e7 64 bd f0 c5 53 bd
       -0.051775735 0.038979862 -0.055885017 -0.05170244
000380 bf f2 5e 3e 5a a6 38 3c 3c ec 45 3c 09 b0 f3 3c
       0.21772288 0.01127013 0.012080248 0.029747026
000390 dc 65 d1 3c 0d c6 51 bd ce ef 14 3d cb eb eb 3d
       0.025561266 -0.051214267 0.036361508 0.11519583
0003a0 13 31 e4 3d bd 21 46 bd 40 6d 88 bc 9b 2a 31 3e
       0.11142173 -0.04837202 -0.016653657 0.17301409
0003b0 c7 cf 01 3e 14 6e 00 bd f3 57 2b bc 4d 2d ce 3c
       0.12676917 -0.03135498 -0.01045798 0.025168085
0003c0 ff 0b df 3c b9 82 7e bd f7 34 ec 3c b6 27 90 3c
       0.0272274 -0.062136386 0.02883385 0.01759706
0003d0 89 f7 2b bd fa 6a 4d 3d 70 64 46 3d 74 97 48 3d
       -0.041984115 0.05015085 0.04843563 0.048972562
0003e0 54 04 85 3d 21 d4 a9 3c 98 6f 34 3d 2d 5b ce bb
       0.06494966 0.020731034 0.044051737 -0.00629749
0003f0 69 6f 3a 3d 0e 0e c4 3d 62 b0 7f ba 89 ee 91 bd
       0.045516405 0.09572993 -0.0009753761 -0.07125575

bias f4 [128]
000000 70 e6 9e 3c ba b6 71 bc 60 9f 91 3c 6d d1 f8 bc
       0.01939699 -0.014753038 0.017776191 -0.0303733
000010 7c b0 b7 bc 8a 14 80 bc 87 4a 0b bc 9e 97 9d 3b
       -0.022423021 -0.015634794 -0.008501655 0.004809334
000020 73 e2 2d 3d 13 85 47 3d 6b 80 39 3b be 62 6d 3b
       0.042452287 0.048710894 0.0028305303 0.0036222185
000030 94 f7 7d 3c de f8 c0 bc 82 cd d7 3b fb 1e 18 ba
       0.015500922 -0.02355617 0.0065857777 -0.00058029563
000040 99 21 46 3c b6 51 1d bc 4b d3 14 bc eb 32 d6 ba
       0.012092971 -0.009602001 -0.009083579 -0.0016342079
000050 19 e3 2f bd 65 c3 a7 3c c6 ad 07 bd d2 ab ac bc
       -0.042941187 0.020478914 -0.033124708 -0.021078024
000060 e8 fd 25 bc dc c1 91 3d 3b 6f 61 bb a7 ae a1 bb
       -0.010131337 0.07117054 -0.0034398574 -0.0049341503
000070 81 39 0c 3d f2 22 4c 3c e8 e5 21 3d ef 00 9b bd
       0.034234527 0.0124595035 0.039525896 -0.075685374
000080 33 79 a1 bc 6e 68 49 3d 99 35 27 3b 5c eb ab 3b
       -0.019711113 0.049171858 0.0025514124 0.005246563
000090 4e 0a 93 bc 1b 32 89 bd f3 81 79 bc 63 3c a6 bc
       -0.01794925 -0.0669901 -0.015228736 -0.020292467
0000a0 ba 63 d1 bc cd c9 9b bc 38 6f e8 bc 69 64 1c 3d
       -0.025560249 -0.019017125 -0.028373346 0.038181696
0000b0 a2 23 90 3c 68 c3 9a 3b 49 66 26 bd b3 40 c5 3c
       0.017595116 0.0047230013 -0.04062489 0.024078703
0000c0 be be b5 bb d9 59 a5 bc 2f bd 95 bb 81 c8 61 3d
       -0.00554642 -0.020184444 -0.0045696716 0.055122856
0000d0 38 62 35 bb b0 70 50 bc bf 00 0d bd 97 27 1d bd
       -0.002767695 -0.012722179 -0.03442454 -0.038367834
0000e0 cb bd 20 3d 6f 08 56 bc 26 11 8d 3c 86 81 15 3c
       0.0392435 -0.013063534 0.017220091 0.009125119
0000f0 58 cc 72 bc df fa 6b 3c 4b 8a 8a 3d 9f 81 34 3d
       -0.014819227 0.014403074 0.067646585 0.04406893
000100 29 a2 59 bc 26 5b 4e 3b 83 50 d1 3b 2d 69 e6 bb
       -0.013283291 0.0031487434 0.0063877716 -0.007031581
000110 67 7c cb bc c5 87 e7 bb 0c 2b 18 bb ee 2e 15 3c
       -0.024839593 -0.0070657455 -0.0023219017 0.009105427
000120 f8 7d 5b 3b 1a f1 3f bc 00 45 de 3c c5 b3 e8 3b
       0.0033491831 -0.011715198 0.027132511 0.0071015083
000130 4f 21 9f bc b5 1a 9d bd bf fd 93 3c 00 9f 0d bc
       -0.019425062 -0.076711096 0.018065332 -0.008643866
000140 c9 8c 98 3c a3 dd 8d bd 6b d2 df 3c d7 63 12 bd
       0.01862182 -0.069270395 0.027322015 -0.035739746
000150 87 68 d0 bc 71 77 38 3c f3 09 ce 3c 95 0d 03 bc
       -0.025440468 0.011258946 0.025151229 -0.007998844
000160 c4 9d a5 bb 05 b4 99 3c ae 3c f7 3c e7 44 03 bd
       -0.0050542075 0.018762598 0.030180302 -0.032048132
000170 6c 17 c7 bc 1f 5d 3b 3d 4d 76 44 3d 6a ff 09 3d
       -0.02430316 0.045743104 0.047964383 0.033690847
000180 51 63 9c 3b 04 4f b3 bc 39 ef 83 bc 27 c0 9e bc
       0.0047725816 -0.021888264 -0.016105281 -0.019378735
000190 ce 17 2e bd 37 f2 32 3d 4a c7 ac 3c 29 31 a0 bc
       -0.04250317 0.043688025 0.021091122 -0.019554691
0001a0 90 f3 3b 3d a4 bb 5c 3d c3 64 76 3d ad 11 05 3c
       0.045886576 0.053889886 0.060154688 0.00812189
0001b0 a4 29 23 3c 61 05 07 bd 6a 3b 06 3d 61 7d 2f bb
       0.009958658 -0.032964114 0.032771505 -0.0026777613
0001c0 66 70 4b bd 82 c7 2e 3d d3 20 1e bc 8a 13 b3 3b
       -0.04966774 0.042670734 -0.009651381 0.0054649757
0001d0 cb bf 2d bc ab 91 87 bc 96 81 d0 bc 60 68 94 ba
       -0.010604809 -0.016548952 -0.025452416 -0.001132261
0001e0 ff 3b 6a ba e3 07 57 bd dc 79 e5 bb cc 04 a8 bb
       -0.0008935332 -0.052497756 -0.007003052 -0.005127525
0001f0 d3 78 6f bc 7a c2 7f 3c a9 52 60 3c 49 aa b1 3c
       -0.014616209 0.015610332 0.013691583 0.021687644

weight f4 [10, 128]
000000 74 c7 47 bd f9 1a dc 3d 4a 61 6d 3d 3c 20 c0 bc
       -0.048774198 0.10747332 0.05795411 -0.02345287
000010 ef af 02 3e 32 a2 80 3d 5c 48 b8 be 3b 92 1d be
       0.12762426 0.06280936 -0.35992706 -0.15387814
000020 e5 1a df 3d 68 fd a0 3d 7c e5 47 3d df 3d 1c 3d
       0.108938016 0.078608334 0.048802838 0.038144942
000030 78 2f bb 3d 87 64 2f be ae 74 65 3d af ae 09 3d
       0.09139913 -0.17128192 0.056019478 0.033613857
000040 58 9b 57 be 2e 4d 03 bc bb e8 33 3c 7e 26 ea bb
       -0.21055353 -0.008014007 0.01098078 -0.007145702
000050 97 cb 4a bd 8a 22 0b 3d d2 6a 60 be 5b ec ba bc
       -0.049510565 0.033968486 -0.21915749 -0.022817781
000060 e4 61 ed bc db 14 24 be e6 ba db bb 69 01 f0 bc
       -0.028977342 -0.1602358 -0.0067056296 -0.029297547
000070 4c cb 13 3e be ba a2 3d 1b 19 23 bd 1a 0e 03 3d
       0.1443302 0.079457745 -0.039818864 0.03199587
000080 71 02 40 3c ce 49 0a 3e ce 69 11 3d f2 65 ca 3b
       0.011719332 0.13504717 0.035501294 0.0061767036
000090 ce 5b 05 3c 95 29 9b 3c 11 f3 de bc 23 71 6b 3d
       0.008139564 0.018940726 -0.027215512 0.057480942
0000a0 bb 5d 64 3d 4a 0d 27 3c f4 9b 9e bd cb 8d 54 be
       0.05575345 0.010196039 -0.077445894 -0.20757215
0000b0 76 fc 5e 3d de 70 53 be 05 d4 9e 3d c5 9f b4 be
       0.054439984 -0.20648524 0.07755283 -0.35278144
0000c0 e9 41 95 bd 6c c9 21 bc cf 36 11 bd 49 ff 0e 3e
       -0.07287962 -0.009874683 -0.03545266 0.13964571
0000d0 ee c1 60 bc 97 ec 98 3d 3e 7d 22 be d5 1a 23 bd
       -0.013718111 0.07467001 -0.15868089 -0.03982051
0000e0 56 f4 dd 3c 49 d2 1b 3d e5 4a 39 bd 6e 9e 1a 3d
       0.027094048 0.03804234 -0.04523744 0.037748747
0000f0 3d 10 18 3e 89 40 80 be dc fb e5 bb 11 53 3a be
       0.14849944 -0.25049236 -0.0070185494 -0.1819575
000100 0f 98 03 3e 8f 39 df bd 56 61 2b bd d2 d4 06 3e
       0.12850975 -0.1089965 -0.041840874 0.13167122
000110 b2 2c 46 bd 04 51 3e 3e d4 9a 5f bd d6 2b 2d 3d
       -0.04838247 0.18585593 -0.054591015 0.042278133
000120 4f 2f 23 3d 99 c2 5f bc 6a d7 e4 3d 35 84 86 3d
       0.03984004 -0.013657236 0.111738995 0.06568185
000130 7b 40 0e be 2c 0b c8 bd 7b 51 f0 3d 3f c9 78 3d
       -0.13891785 -0.09767756 0.11734291 0.0607388
000140 50 d1 88 3d 28 e0 c6 3c c5 01 29 bd 8b ee bf bd
       0.06680548 0.024276808 -0.041261453 -0.0937167
000150 22 04 b7 3c 4c 89 01 3e d7 5c 64 be 37 3b 69 bd
       0.022340838 0.12650031 -0.2230104 -0.056941237
000160 86 0e 01 be d1 d7 4d bd ee c9 ed 3b 8c 50 29 3c
       -0.12603197 -0.050254647 0.007256738 0.010334145
000170 14 26 f4 bd c7 80 a5 3d 55 de e5 3d b5 aa 20 be
       -0.11921325 0.08081203 0.11224047 -0.1569012
000180 8d 51 75 be 8c 69 4e be cc da 31 bc 38 00 85 3d
       -0.2395689 -0.2015745 -0.010855388 0.06494182
000190 0e da a5 be dc 2e 07 be 9c f3 92 3d 2a 1f 68 be
       -0.32392925 -0.13201469 0.07175371 -0.22668138
0001a0 1d f4 14 3e 69 da 2c be 26 d1 1a 3d 08 86 0a bd
       0.14546247 -0.16880192 0.037797116 -0.03381923
0001b0 ca d6 ed bd dc a4 03 3d 69 0e 36 be 22 a5 d1 bd
       -0.116132334 0.032139644 -0.17778935 -0.10236575
0001c0 be f9 13 be 4a 89 4b 3e ec 50 61 bd a8 33 2e bd
       -0.14450738 0.1987659 -0.055008814 -0.042529732
0001d0 33 8b f5 3c e7 88 57 3d 73 35 0e bd a4 71 58 bd
       0.029973602 0.052620795 -0.034718942 -0.05284275
0001e0 e7 14 62 be ae fd 72 be 79 4f c5 3c 1c bf 01 3d
       -0.22078286 -0.23729584 0.024085747 0.031676397
0001f0 8b dc 07 3d 15 02 97 3d f3 fc 92 3d a5 0c 8e bd
       0.03316931 0.07373444 0.071771525 -0.069360055
000200 d9 fb e7 bd e2 34 6d be 95 8b 6a 3d e3 50 fa bd
       -0.11327333 -0.23164704 0.057262022 -0.12222459
000210 12 fb 06 be 5a 32 13 3d 84 69 8c 3c 74 7e b4 bd
       -0.13181713 0.03593669 0.017140158 -0.088131815
000220 dc e4 25 3e 61 c8 92 bc 0a 2f bc bd 5c ea 5c 3d
       0.16200584 -0.017917814 -0.091886595 0.05393444
000230 d7 ba 84 be 36 98 8d ba 26 42 1b be b8 6d 88 bd
       -0.25923797 -0.0010802809 -0.15161952 -0.06661552
000240 cd b0 e8 3d 64 fd 2c be 98 68 4a bd de a9 bc bd
       0.11361847 -0.16893536 -0.049416155 -0.09212087
000250 7a d2 66 bd 6f fa c6 3d 21 2a 96 be 7b 79 92 3d
       -0.05635307 0.09715735 -0.29329017 0.07152077
000260 8a 8d 92 bd 76 53 f2 3d c8 08 41 bd aa ed 69 3d
       -0.07155903 0.11832325 -0.047127515 0.05711142
000270 db a5 41 be 27 61 8e bc b4 1c 6f 3e 24 c2 12 3d
       -0.18910925 -0.01738031 0.23350793 0.03582968
000280 f4 e5 98 3d 29 8e ad 3d 30 4d 34 3d 12 e0 a3 bd
       0.07465735 0.084743805 0.044018924 -0.080017224
000290 80 c7 e1 bd 0e be 5a bd 96 81 85 bd 41 84 37 bc
       -0.1102438 -0.053403907 -0.06518857 -0.011200965
0002a0 59 d2 e5 3c a3 91 16 3c d9 56 41 bd 43 e7 39 3d
       0.028054403 0.009189996 -0.047201965 0.045386564
0002b0 aa 2a 6a bd 03 5b d9 3d c7 b7 71 bd c9 c3 29 be
       -0.057169594 0.10613062 -0.059013154 -0.16578592
0002c0 79 30 ad bc 36 e2 c3 bd 70 7e a2 3d 8c 98 f9 3d
       -0.021141278 -0.09564631 0.07934272 0.12187299
0002d0 ce ac 9a 3d fe 19 0e be 3c 12 26 bd 81 2e 0f 3e
       0.07552491 -0.13877103 -0.040544733 0.13982584
0002e0 0d 1a 3e bc 6c 3f a6 3d b9 28 33 3d 48 d8 d7 bc
       -0.011602891 0.081175655 0.043740008 -0.026348248
0002f0 bb 07 2d bd 99 48 cd 3d 2b 32 cd 3d 82 5a b4 3c
       -0.0422437 0.100236125 0.100193344 0.022015814
000300 5f 67 40 be cb 56 44 3d f9 c9 a5 bc da 49 37 be
       -0.18789433 0.047934335 -0.02023791 -0.17899266
000310 35 fc 01 3d 91 be 21 3e 88 34 3e bd 0f a3 1a 3d
       0.031734664 0.15795352 -0.046436816 0.03775316
000320 13 3a 86 bd 21 7c 4e 3d d8 81 8b be 16 62 09 bc
       -0.065540455 0.050411347 -0.272475 -0.008385202
000330 41 31 3e bd 1f 29 92 3e a6 d3 23 be d3 fa 9b be
       -0.04643369 0.28546998 -0.15998706 -0.304648
000340 a5 86 34 3d f6 d9 80 3d e0 dd f0 bc d0 2f df bd
       0.04407372 0.06291573 -0.029402673 -0.108977914
000350 84 05 4c bd ff 0c 8a 3d da cf b4 3d ca 8f bd bd
       -0.049809948 0.0674076 0.08828707 -0.09255941
000360 49 88 7f 3d 12 ab 9e bd 9f 5d 53 3d f7 45 c0 3d
       0.06238583 -0.07747473 0.051602956 0.09388345
000370 02 3d 0e be 80 0d f8 3d 9d 65 a2 3d 33 8a 0b 3c
       -0.1389046 0.1211195 0.079295374 0.008516836
000380 e9 ab da 3d 50 2b bb bd b3 ba 94 bd 28 b4 a0 3d
       0.106773205 -0.091391206 -0.072621725 0.07846862
000390 b8 21 61 be 89 12 ec 3d e4 51 a9 3d 29 fa 99 3d
       -0.21985519 0.11526973 0.082675725 0.075184174
0003a0 4b d9 7f 3d 78 e4 aa 3d 91 a3 08 3e e1 ee 21 be
       0.062463086 0.08344358 0.13343646 -0.15813781
0003b0 c8 0e 4a 3c 66 a5 ba bd 6c 83 b9 3d d7 4e 56 3d
       0.012332626 -0.091135785 0.0905827 0.05232128
0003c0 e7 b1 df bd f2 96 dd 3d b6 48 78 ba 3b 55 4e 3d
       -0.10922604 0.10819806 -0.0009471284 0.05037425
0003d0 e3 86 ad 3d f6 a3 fe 3b 81 14 31 3d 6a 36 70 be
       0.08472993 0.0077710105 0.043232445 -0.23458257
0003e0 8d 58 e6 3d cb 69 17 be ba b2 83 bd 94 6e 95 be
       0.112473585 -0.1478645 -0.06430574 -0.29185927
0003f0 22 b8 77 bd 13 1c 18 be f3 ea 5a 3b 49 39 3d 3c
       -0.060478337 -0.1485446 0.00334042 0.011549302

bias f4 [10]
000000 b2 96 02 bd 96 9d fd 3d 8c ea 17 bd c4 03 a0 3c
       -0.031881995 0.12383573 -0.037088916 0.019533046
000010 71 d9 a0 3c 80 dd 9a bd 2c 31 d1 bc 2d 14 94 3d
       0.019634934 -0.07561779 -0.025536142 0.07230411
000020 40 fb 79 3b 5a b3 91 bd
       0.0038144141 -0.07114287
