examples/TensorBoard/model.pt (torch, 904360 bytes, 8 tensors)

weight f4 [32, 1, 3, 3]
0	0xbec1f015	-0.3787848
1	0x3dffb588	0.12485796
2	0xbe8c0a45	-0.27351585
3	0x3e86d49b	0.2633408
4	0x3ec46a1d	0.38362208
5	0x3e8091f2	0.25111347
6	0xba8b0598	-0.0010606525
7	0xbdc161e1	-0.09442497
8	0x3de45f07	0.111509375
9	0x3f0067ac	0.5015819
10	0x3eef03c0	0.4668255
11	0x3e92a5ff	0.2864227
12	0xbd1d2852	-0.03836853
13	0x3d70d00b	0.058792155
14	0xbe74f4e8	-0.2392155
15	0xbf13ed52	-0.57784
16	0xbf1397bf	-0.5765342
17	0xbbff1134	-0.007784033
18	0x3e60678b	0.21914499
19	0x3e6d89a4	0.23197037
20	0x3e04874a	0.12942234
21	0xbe9069bb	-0.28205666
22	0x3ea418f6	0.32050294
23	0xbe08ce41	-0.1335993
24	0xbf19bd5f	-0.6005458
25	0xbe26905c	-0.16266006
26	0x3ea7c6d5	0.32768884
27	0x3e780d43	0.24223809
28	0x3dd7bcea	0.105340794
29	0x3e4ccbe7	0.19999658
30	0xbe7346a2	-0.23757413
31	0x3ac95396	0.0015359994
32	0x3e4983ff	0.19679259
33	0x3dc412d2	0.09573902
34	0x3d8f182e	0.06987034
35	0xbe9ba991	-0.30402806
36	0x3ee6c139	0.45069292
37	0x3e6ce065	0.23132475
38	0xbdf0ea8d	-0.11763487
39	0x3c073a4a	0.008253643
40	0xbc9eb200	-0.019371986
41	0x3e9dbd09	0.30808285
42	0xbf10a63e	-0.56503665
43	0xbeca1a56	-0.39473218
44	0x3d00e612	0.031469412
45	0x3c003fa7	0.007827676
46	0xbece90f2	-0.4034496
47	0x3ea1d5ce	0.31608433
48	0xbe94e8d1	-0.29083875
49	0xbeac472e	-0.33648056
50	0x3f033ec8	0.5126767
51	0xbee8293c	-0.4534396
52	0x3e3f10f7	0.18658815
53	0x3ea7980d	0.32733193
54	0x3e9ed254	0.31019843
55	0x3e082105	0.13293846
56	0xbdff696f	-0.12471282
57	0x3e3067b6	0.17227063
58	0x3ea697c9	0.32537678
59	0xbf0a3441	-0.53985983
60	0x3ea8cab2	0.32967144
61	0xbd35c8a3	-0.044380795
62	0xbf1bec47	-0.60907406
63	0x3e553b8e	0.208235
64	0x3e733686	0.23751268
65	0xbd87b03f	-0.06625413
66	0xbda6a287	-0.081364684
67	0x3ea7a47e	0.32742685
68	0x3e81dbcf	0.25363013
69	0xbea758d8	-0.3268497
70	0xbeb6b064	-0.3568145
71	0x3e2fe798	0.1717819
72	0x3d29d5bf	0.04146361
73	0xbf055446	-0.52081716
74	0xbd0e91c3	-0.034806978
75	0xbedb4f80	-0.4283409
76	0xbe5917b7	-0.21200453
77	0x3e4b63dd	0.19862314
78	0x3ee66ea4	0.45006287
79	0x3ebaf99c	0.36518562
80	0x3e3f6fb4	0.18694955
81	0xbd42937f	-0.047503944
82	0x3efde13c	0.49585903
83	0xbe7b23df	-0.24525402
84	0x3dd5d48b	0.1044093
85	0xbe6f282c	-0.23355168
86	0xbf002f14	-0.50071836
87	0x3ea7048d	0.3262066
88	0x3ee6f7d0	0.4511094
89	0xbedfa50f	-0.43680617
90	0x3e792998	0.24332273
91	0xbdcc75cb	-0.09983405
92	0xbd8a5f4b	-0.06756457
93	0x3ed42055	0.41430917
94	0x3de9e727	0.11421042
95	0xbf1a2900	-0.6021881
96	0x3e91dd4f	0.28489158
97	0x3eb7ff3f	0.35936925
98	0xbec047d6	-0.37554806
99	0xbf556642	-0.8335916
100	0xbee8c50d	-0.45462838
101	0x3eb88fff	0.3604736
102	0xbe930e17	-0.28721687
103	0x3f3598dd	0.70936376
104	0x3eb3973a	0.35076314
105	0x3ef27f7b	0.47362885
106	0x3e17f7ff	0.14840697
107	0xbebbe4ca	-0.3669799
108	0x3e40df6f	0.18835233
109	0xbed518b1	-0.416204
110	0xbf077618	-0.5291457
111	0x3e924db3	0.28574905
112	0x3e9832da	0.29726297
113	0xbccae27a	-0.024766196
114	0xbdb637fe	-0.088973984
115	0x3ee2ae7d	0.4427375
116	0x3e6d6262	0.23182061
117	0x3da6a3dd	0.08136723
118	0xbef0be31	-0.47020105
119	0x3e0486bd	0.12942024
120	0x3d686133	0.05673332
121	0xbf29a446	-0.66266286
122	0xbe993090	-0.29919863
123	0xbea06442	-0.3132649
124	0xbec14981	-0.37751392
125	0x3cfd3c89	0.030912654
126	0x3df20ea4	0.11819199
127	0x3ee5aa96	0.4485671
128	0x3eac11d1	0.33607343
129	0xbeb4e5de	-0.35331625
130	0xbd985b3c	-0.074392766
131	0x3e8cb29a	0.27480012
132	0xbedf1bdb	-0.4357594
133	0x3daaa63f	0.0833249
134	0x3ead3226	0.33827323
135	0x3e4a9d14	0.19786483
136	0xbf06395f	-0.5243129
137	0x3da997ae	0.08280884
138	0x3e7b91c8	0.2456733
139	0xbda60346	-0.08106093
140	0x3e14ac74	0.1451891
141	0x3e027418	0.12739599
142	0xbe246830	-0.1605537
143	0x3d5ce59c	0.05392991
144	0x3e01eb8d	0.12687512
145	0x3e22f235	0.15912707
146	0x3e6d5f68	0.23180926
147	0xbeb04800	-0.34429932
148	0x3ea48ac5	0.32137123
149	0x3e709da2	0.23497632
150	0x3e558b04	0.20853812
151	0x3eafa7e1	0.3430777
152	0x3ddf0684	0.10889915
153	0xbe236238	-0.15955436
154	0x3ef551e3	0.47914037
155	0x3dd77725	0.10520772
156	0x3f0df1cc	0.5544708
157	0x3c9113df	0.01770967
158	0xbe8db947	-0.27680418
159	0x3d4017d6	0.04689773
160	0xbea9548d	-0.3307232
161	0xbe7a4e1f	-0.24443863
162	0xbf136db5	-0.57589275
163	0x3bfbfc64	0.0076899994
164	0x3e949bf9	0.29025248
165	0xbe8a0f56	-0.26964825
166	0x3e01a0c8	0.1265899
167	0x3e399cae	0.18126175
168	0xbc44ddde	-0.012015788
169	0x3e52381a	0.20529214
170	0x3eaddca5	0.339574
171	0x3dc8e7a8	0.0980981
172	0x3ee444f3	0.44583854
173	0xbdc878e4	-0.09788683
174	0xbec7d74e	-0.39031452
175	0x3ee1bf09	0.4409106
176	0xbdc22dc4	-0.09481385
177	0xbee2d0b6	-0.4429986
178	0x3ca40e55	0.020026365
179	0x3e9eb06c	0.30993974
180	0xbe06f4fa	-0.13179389
181	0x3e37177a	0.1788005
182	0xbf173631	-0.59067065
183	0x3e93dd6e	0.28879875
184	0xbe06c549	-0.13161196
185	0x3e58e796	0.21182093
186	0x3e15fa18	0.14646184
187	0x3d94966b	0.072552525
188	0xbe6ec18a	-0.23316017
189	0x3efcf2d9	0.49404028
190	0x3e340999	0.17581786
191	0x3eb4388c	0.35199392
192	0xbe65dcf7	-0.22447573
193	0x3d7e4940	0.062081575
194	0xbe65697e	-0.22403523
195	0xbf107dce	-0.5644196
196	0xbf0d1f16	-0.5512556
197	0xbef020d2	-0.4690004
198	0xbd7cf157	-0.061753597
199	0xbe849bec	-0.2590021
200	0x3d427495	0.047474463
201	0xbd8f52de	-0.069982275
202	0x3ec52ff2	0.38513142
203	0xbec46167	-0.38355562
204	0x3d6ba789	0.05753282
205	0x3ed26a7c	0.41096866
206	0x3e4bf190	0.19916368
207	0x3d47fd67	0.048825648
208	0x3e41cce5	0.18925817
209	0x3db03478	0.086037576
210	0xbd8256fa	-0.06364246
211	0x3d88895f	0.066668265
212	0xbd1d5a39	-0.03841612
213	0xbe7357bf	-0.23763941
214	0x3ea068e3	0.31330022
215	0x3dd83cb1	0.10558451
216	0x3e2b5aba	0.16733828
217	0x3e8060ad	0.25073758
218	0x3ed7a45a	0.42117578
219	0xbea8181f	-0.32830903
220	0xbddbf924	-0.10740879
221	0x3f1982b0	0.5996504
222	0xbefef6c0	-0.4979763
223	0xbf0a076c	-0.53917575
224	0x3dc7eb94	0.0976173
225	0xbf1dd6ca	-0.6165587
226	0x3e383e26	0.17992458
227	0x3eaa2d6d	0.33237782
228	0xbeae2927	-0.34015772
229	0xbdce5a80	-0.10075855
230	0x3e23c00f	0.15991233
231	0xbebd3593	-0.36954936
232	0xbc99f456	-0.018793266
233	0x3e9f1074	0.3106724
234	0x3ed71861	0.42010787
235	0x3eb32c44	0.3499471
236	0x3e81b4c3	0.25333223
237	0x3c9ee90f	0.01939824
238	0xbbf39b5f	-0.007434293
239	0xbe6e8b93	-0.23295431
240	0xbeb6657e	-0.35624307
241	0xbf0b7b46	-0.54484975
242	0xbe9b4ac3	-0.30330476
243	0x3e073502	0.13203815
244	0x3dcd4601	0.10023118
245	0x3f312119	0.6919113
246	0xbd7edb1a	-0.06222067
247	0xbe49de2e	-0.19713661
248	0xbdb5ae78	-0.08871168
249	0xbe9d9900	-0.30780792
250	0xbeeea861	-0.46612838
251	0x3d6c5152	0.05769474
252	0x3e8b55b4	0.27213824
253	0x3d8d460a	0.068981245
254	0xbe83f9cd	-0.2577652
255	0xbe5369db	-0.2064585

bias f4 [32]
0	0xbda9ad0d	-0.0828496
1	0x3d6a70a0	0.057236314
2	0xbdeecf6b	-0.116606556
3	0xbe00d6dd	-0.12581964
4	0xbc44e174	-0.012016643
5	0xbdb67158	-0.08908337
6	0xbd957e37	-0.07299464
7	0xbda45c11	-0.08025373
8	0xbcc3b9df	-0.023892341
9	0xbb86061e	-0.0040900847
10	0xbe1b9406	-0.15193185
11	0xbdb3f17e	-0.08786295
12	0xbdd21120	-0.102571726
13	0x3ee43567	0.44571993
14	0xbeb5c055	-0.354983
15	0xbdf74792	-0.12074198
16	0xbe952c2d	-0.29135266
17	0xbd9accf6	-0.075586244
18	0xbdeb74a9	-0.114968605
19	0xbde0d290	-0.109776616
20	0xbd02a538	-0.031895846
21	0x3e811e20	0.25218296
22	0xbdd840ba	-0.105592206
23	0xbe261cbf	-0.16221903
24	0xbc4d370c	-0.012525331
25	0xbc5549bf	-0.013018071
26	0x3df70497	0.12061422
27	0xbc716fb6	-0.014736107
28	0xbdd0133b	-0.10159918
29	0x3db0f1de	0.086398825
30	0xbe66483d	-0.22488494
31	0xbe4a403e	-0.19751069

weight f4 [64, 32, 3, 3]
0	0x3cf03d0e	0.029325988
1	0x3d2519e4	0.040307894
2	0x3d103183	0.035203468
3	0xbd8edc88	-0.06975657
4	0x3d61bf52	0.055114098
5	0xbcd339dd	-0.025784427
6	0xbd085074	-0.03327985
7	0x3d031f57	0.03201231
8	0x3d943ed5	0.07238547
9	0xbdb3f975	-0.087878145
10	0xbeec8101	-0.46192172
11	0xbe8e5f40	-0.27807045
12	0xbe6814ed	-0.22664233
13	0xbea00fee	-0.31262153
14	0xbee512a2	-0.44740778
15	0xbe5b1752	-0.21395615
16	0xbea36817	-0.31915352
17	0xbe79e061	-0.24402
18	0x3dd7670f	0.10517704
19	0x3da306a7	0.07960253
20	0x3d2af7a9	0.041740093
21	0x3c8dc97a	0.017307986
22	0x3d8d5c15	0.06902329
23	0xbd8d5849	-0.06901605
24	0xbc52abb7	-0.012858323
25	0x3cc42d3f	0.023947356
26	0x3d05835d	0.03259598
27	0xbd27acb4	-0.040936187
28	0x3d5b97ea	0.053611673
29	0x3d783675	0.06059881
30	0xbd833648	-0.06406838
31	0x3c013711	0.007886664
32	0x3cf6834b	0.030091902
33	0xbe0862f0	-0.13318992
34	0x3ca201aa	0.019776184
35	0x3d06b6db	0.03288923
36	0x3dddc217	0.10828035
37	0xbdb1c2b6	-0.08679716
38	0xbe763ad6	-0.24045882
39	0x3d714a0f	0.05890852
40	0xbdcee4bf	-0.101022236
41	0xbe716b62	-0.2357612
42	0xbdd8cf5d	-0.105864264
43	0xbe1ea333	-0.15491943
44	0xbd8383fd	-0.06421659
45	0x3e544518	0.20729482
46	0x3e079d3b	0.13243572
47	0xbd4b0a1e	-0.049570195
48	0x3d9948ff	0.07484626
49	0x3cc66fb7	0.024223192
50	0xbe7e3691	-0.24825503
51	0x3cd6c0e4	0.026215024
52	0xbbb6b07a	-0.005575237
53	0xbdfe8ae4	-0.12428835
54	0xbe00a146	-0.12561521
55	0x3d2ea1ef	0.0426349
56	0xbd6a3fd1	-0.057189766
57	0xbe41be1f	-0.18920182
58	0xbd911143	-0.070833705
59	0xbc028a84	-0.007967595
60	0xbe9d3d6d	-0.30710927
61	0xbe61675d	-0.22012086
62	0x3d2061a2	0.03915561
63	0x3de69106	0.1125813
64	0x3d50f790	0.051017344
65	0x3d84b938	0.0648064
66	0x3c455d0f	0.012046113
67	0x3dd0f548	0.10203034
68	0x3c9258f7	0.017864687
69	0xbd1f5a1f	-0.038904306
70	0x3d5ff344	0.054675356
71	0x3c2c7484	0.010525826
72	0xbe3dcf9b	-0.18536226
73	0xbd749d01	-0.059720043
74	0x3c24a346	0.010048693
75	0x3a8392bc	0.0010038237
76	0xbe62b5b9	-0.22139634
77	0xbdd43658	-0.10361928
78	0x3d6b8707	0.05750182
79	0xbce4cda5	-0.02793009
80	0x3c7c8e1c	0.015414741
81	0xbe4581e3	-0.19287829
82	0x3c05fb60	0.008177608
83	0x3cac8ad4	0.021062292
84	0xbe3ac3ef	-0.18238805
85	0xbe17cc29	-0.14823975
86	0x3c9d69a8	0.01921542
87	0xbec57b2b	-0.38570532
88	0xbec259a9	-0.3795903
89	0xbe063533	-0.13106231
90	0xbd88c740	-0.06678629
91	0x3df0d698	0.117596805
92	0xbc95c1f0	-0.018280953
93	0xbe04e305	-0.12977226
94	0x3c1ddd2e	0.009635253
95	0x3c0d634b	0.00862963
96	0xbe3e021b	-0.1855549
97	0xbdce0bef	-0.1006087
98	0x3c467ce5	0.012114738
99	0xbe0069bd	-0.12540336
100	0xbe223b72	-0.15842989
101	0x3cace88d	0.021106983
102	0xbcda5de8	-0.026656106
103	0xbe0482db	-0.12940542
104	0xbe0625a9	-0.13100304
105	0xbd0b8e20	-0.034071088
106	0xbdf46f9a	-0.11935349
107	0xbe1e15e7	-0.15438043
108	0x3c941060	0.018074214
109	0x3d37e2a2	0.04489387
110	0x3c039f18	0.008033536
111	0xbe0e044d	-0.13868828
112	0x3d9680b4	0.07348767
113	0x3ddb0688	0.10694605
114	0x3dc1b814	0.09458938
115	0xbc075f7c	-0.008262511
116	0x3e4beb66	0.19914016
117	0xbd9a124b	-0.0752302
118	0xbdadbf0c	-0.08483705
119	0xbe6edcd1	-0.23326422
120	0x3d822ce7	0.06356221
121	0xbe4f8fba	-0.20269671
122	0xbe35aa0a	-0.17740646
123	0xbd0f7cc9	-0.035031114
124	0x3dd24da9	0.10268719
125	0xbe7d125f	-0.2471404
126	0x3e07d320	0.13264132
127	0x3e09df08	0.13463986
128	0xbd485a5a	-0.04891429
129	0x3e114a65	0.14188536
130	0x3d5bcde9	0.053663168
131	0xbc2ab9fc	-0.010420319
132	0xbcd0aede	-0.025474008
133	0x3d729919	0.059228037
134	0x3d7be2d0	0.061495602
135	0x3cb91c53	0.022596514
136	0x3aa30bfc	0.0012439485
137	0xbaf11930	-0.0018394347
138	0x3d58b141	0.052903417
139	0x3c0dd038	0.0086556
140	0x3d39b4d7	0.045338478
141	0x3d326712	0.043555327
142	0xbdd918cb	-0.10600432
143	0x3c24cb94	0.010058302
144	0x3dc0b5ff	0.09409713
145	0x3d4f4591	0.050603453
146	0x3db61518	0.08890742
147	0xbd6d9862	-0.05800665
148	0x3d76934f	0.06019908
149	0x3b9be86b	0.004757931
150	0x3bbd0600	0.0057685375
151	0x3dbcf6db	0.092267714
152	0x3dfd180d	0.12358103
153	0xbdc3cff1	-0.09561146
154	0xbd728d7c	-0.05921696
155	0x3dad9f63	0.08477666
156	0xbe3ef44e	-0.18647882
157	0xbe29be81	-0.16576578
158	0xbd79cbe2	-0.060985453
159	0xbe0349e6	-0.12821159
160	0xbe4ca6dd	-0.19985528
161	0xbdef91c1	-0.11697722
162	0x3dee8b54	0.116476685
163	0x3ca8d9db	0.020611694
164	0x3c44c761	0.012010426
165	0x3daeac0a	0.085289076
166	0x3d92653b	0.071482144
167	0xbdf9774a	-0.12180956
168	0x3d0dd567	0.034627344
169	0xbc156d38	-0.009120278
170	0x3d46c97d	0.048531998
171	0x3e2f9f43	0.17150597
172	0x3de6cc01	0.112693794
173	0xbc4997b8	-0.012304239
174	0x3ddcae10	0.10775387
175	0x3ded0240	0.11572695
176	0x3de3d071	0.111237414
177	0xbdd87ab8	-0.10570282
178	0x3e00da18	0.12583196
179	0x3e0bdc74	0.13658315
180	0xbdd02e59	-0.1016509
181	0x3d829173	0.063753985
182	0xbd0c5d05	-0.034268398
183	0x3d8f2d5b	0.06991073
184	0xbde9677c	-0.11396691
185	0xbc93b61d	-0.018031174
186	0x3bb4c0ee	0.005516163
187	0xbe363820	-0.17794847
188	0xbccdd68b	-0.025126716
189	0xbe064f9e	-0.13116309
190	0xbebb744d	-0.36612168
191	0xbe70569b	-0.23470537
192	0xbde02853	-0.10945191
193	0xbe959793	-0.29217204
194	0xbeba86bc	-0.3643092
195	0xbe03731d	-0.12836881
196	0xbe99f190	-0.3006711
197	0xbe789025	-0.24273737
198	0x3c54049c	0.012940552
199	0x3d8f7ef5	0.07006637
200	0x3d348e11	0.044080798
201	0xbe44f3bd	-0.19233604
202	0x3d0627aa	0.03275267
203	0x3c0f5cfc	0.008750197
204	0x3ca0d877	0.019634468
205	0xbcc0d8c3	-0.02354086
206	0x3e0bf0d0	0.13666081
207	0x3dbdf851	0.09275878
208	0x3d972ee1	0.07381988
209	0xbd4d8bb6	-0.050182067
210	0x3c6ea047	0.01456458
211	0x3c2a36a2	0.010389002
212	0xbcbb35db	-0.022852829
213	0xbd5b1368	-0.053485304
214	0x3c8eb134	0.017418481
215	0x3dac9dd2	0.08428539
216	0x3e639bf1	0.22227456
217	0x3c8e1a46	0.017346513
218	0xbc99b013	-0.018760717
219	0x3e330de3	0.17485766
220	0x3e1d6f72	0.15374544
221	0xbe58d65f	-0.21175526
222	0xbcb4e426	-0.022081446
223	0x3d25a89b	0.040443998
224	0x3d906f6c	0.07052502
225	0x3e137519	0.14400138
226	0x3d9a2ab7	0.075276785
227	0xbd7b5bc9	-0.06136683
228	0x3e15860b	0.14601915
229	0x3ce731e7	0.028222037
230	0xbd6fda71	-0.05855793
231	0x3cb69b85	0.022290954
232	0x3dad33ef	0.08457171
233	0x3da41f98	0.080138385
234	0xbe08a705	-0.13344963
235	0xbe8a2411	-0.2698064
236	0xbe1876ac	-0.1488902
237	0xbdff39d2	-0.124622
238	0xbe4a10f0	-0.19733024
239	0xbe7533d0	-0.23945546
240	0xbe101950	-0.14072156
241	0xbe5f55ee	-0.21810123
242	0xbe6e934a	-0.23298374
243	0x3d8b08b3	0.067887686
244	0xbe6006ac	-0.21877545
245	0xbde1a4de	-0.11017774
246	0x3db9a62c	0.09064898
247	0x3cc7c742	0.024387006
248	0xbe7e1aa2	-0.24814847
249	0x3dcb66ad	0.09931693
250	0x3b098194	0.0020981776
251	0xbe0630dc	-0.13104576
252	0x3d55f82b	0.052238625
253	0x3d8cd659	0.06876821
254	0xbb9ebcce	-0.0048442846
255	0x3c443f92	0.011978047

bias f4 [64]
0	0xbc8b5842	-0.017009858
1	0xbcc639f9	-0.024197565
2	0xbdd2578b	-0.10270604
3	0xbe088b00	-0.13334274
4	0xbdc5e5a6	-0.096629426
5	0xbd3bd92e	-0.045861416
6	0xbd81899c	-0.06325075
7	0xbdc03236	-0.09384577
8	0xbe1c1dc7	-0.15245734
9	0xbe263a3f	-0.16233157
10	0xbc284622	-0.010270627
11	0xbddcbb2a	-0.10777886
12	0xbd8a0da5	-0.06740884
13	0x3b891215	0.0041830637
14	0xbe196fd7	-0.1498407
15	0xbdd030e2	-0.10165574
16	0xbd53cac9	-0.051707063
17	0xbd0a2727	-0.033728745
18	0xbcd1f29c	-0.02562838
19	0x3ae71207	0.0017629274
20	0x3ac42b0d	0.0014966443
21	0xbd78b14f	-0.06071597
22	0xbc92ae13	-0.01790527
23	0xbd7cea6f	-0.06174701
24	0xbdcb21d6	-0.09918563
25	0xbcdcb3c2	-0.026941184
26	0xbc99a3b6	-0.018754821
27	0x3d5ddedb	0.05416761
28	0xbd714c94	-0.05891092
29	0xbdb40734	-0.087904364
30	0x3cfcb02d	0.030845726
31	0xbd2ccaa6	-0.042185448
32	0xbd3446a8	-0.044012696
33	0xbd83a361	-0.064276464
34	0xbd355f5e	-0.044280402
35	0x3d20330d	0.039111186
36	0xbd28cd89	-0.04121164
37	0xbd0e9b74	-0.03481622
38	0xbd131598	-0.035909265
39	0xbd4b7afc	-0.049677834
40	0xbe01a129	-0.12659134
41	0xbdb7300c	-0.08944711
42	0x3d12bd12	0.035824843
43	0x3d01aae7	0.031657126
44	0xbd083978	-0.03325793
45	0xbd2f2b79	-0.042766068
46	0xbe02ee1f	-0.12786148
47	0xbd44600b	-0.047943156
48	0xbd6f9984	-0.058496013
49	0xbd735863	-0.059410464
50	0x3c7d8ca9	0.0154754305
51	0xbd5a0db2	-0.053235717
52	0xb98e7f9d	-0.0002717943
53	0xbdcf0455	-0.10108248
54	0xbd83bcb4	-0.06432477
55	0xbdbef7a6	-0.09324579
56	0xbcd3ddfd	-0.025862688
57	0xbe16364b	-0.14669149
58	0xbd62812d	-0.055298973
59	0xbdacc04b	-0.084351145
60	0xbe10ac35	-0.14128192
61	0xbce5891a	-0.028019477
62	0xbdc3f8fd	-0.09568975
63	0xbc734e82	-0.014850261

weight f4 [128, 1600]
0	0x3d96eb65	0.07369117
1	0xbcc97dd1	-0.024596127
2	0xbd20cb51	-0.039256398
3	0x3ce03c08	0.027372375
4	0xbc06c8f5	-0.008226623
5	0x3d3ce729	0.04611889
6	0xbac01e74	-0.0014657513
7	0x3d679500	0.05653858
8	0x3da57db8	0.080806196
9	0x3de5d227	0.11221724
10	0x3e02aca9	0.12761177
11	0x3dc1bd95	0.09459988
12	0x3d917487	0.07102304
13	0x3d0c101a	0.034195043
14	0xbd43337d	-0.047656525
15	0xbd029dc2	-0.03188873
16	0xbdb33f0e	-0.08752261
17	0x3cd53416	0.026025813
18	0xbd8e1a8a	-0.06938656
19	0x3ba84058	0.0051346235
20	0x3b6000aa	0.0034180083
21	0x3cf462dd	0.029832298
22	0xbbdd6257	-0.006756108
23	0xbad4f510	-0.0016247351
24	0x3d12884b	0.03577451
25	0x3b0a5d5a	0.002111277
26	0x3da7d4c1	0.081948765
27	0xbd994f44	-0.07485822
28	0x3dca5b3e	0.09880684
29	0xbdd43d38	-0.10363239
30	0x3e17330e	0.1476557
31	0xbd5403ce	-0.05176144
32	0x3d6248aa	0.05524508
33	0xbd135a19	-0.035974596
34	0xbd221872	-0.039574094
35	0x3daf83fd	0.08570097
36	0x3e33ca55	0.17557652
37	0x3d49529d	0.04915105
38	0xbd463b52	-0.048396416
39	0xbdf05f1d	-0.117368914
40	0xbda595f1	-0.0808524
41	0x3b9b0ab5	0.004731501
42	0x3df23d60	0.118281126
43	0xbb812fce	-0.0039424663
44	0xbe0daae0	-0.13834715
45	0xbd07530e	-0.03303819
46	0xbd32d51c	-0.04366027
47	0xbde2789f	-0.11058163
48	0xbe13ca0d	-0.14432545
49	0xbdc91b91	-0.09819711
50	0x3c9c2223	0.019059246
51	0xba25403e	-0.00063038233
52	0x3cadddab	0.021223864
53	0xbce5c3d6	-0.028047483
54	0xbd622824	-0.055214062
55	0xbcd15fda	-0.0255584
56	0xbe4118f6	-0.18857178
57	0xbd0597fd	-0.03261565
58	0xbc07b8e4	-0.008283827
59	0x3b94eb61	0.004544661
60	0x3d347714	0.044058874
61	0x3e594736	0.21218571
62	0x3de99b98	0.1140663
63	0xbd14a7ff	-0.036293026
64	0xbdb8cf9d	-0.09023974
65	0xbdd65b5d	-0.10466645
66	0xbdaa6167	-0.08319359
67	0x3cddf44d	0.02709403
68	0xbd5029a8	-0.050820976
69	0xbe5cf064	-0.21576077
70	0xbc924c2c	-0.017858587
71	0x3d2e7a4d	0.042597104
72	0xb980aca8	-0.000245427
73	0xbe37355d	-0.1789145
74	0xbde563e5	-0.11200694
75	0xbded0783	-0.11573698
76	0xbdd1d53f	-0.102457516
77	0xbd891178	-0.06692785
78	0xbd4a59fc	-0.049402222
79	0xbd84cc5c	-0.06484291
80	0xbe25305f	-0.16131733
81	0xbe83a1e5	-0.25709453
82	0xbd9bc679	-0.07606215
83	0xbd825333	-0.06363525
84	0x3baf28f9	0.0053454605
85	0x3c06b856	0.00822266
86	0x3e75a722	0.23989537
87	0x3e80c9b4	0.25153887
88	0x3c315528	0.0108235255
89	0x3d2bbe15	0.041929323
90	0xbd8fdc7d	-0.07024477
91	0xbd611c35	-0.05495854
92	0xbd1d81ed	-0.038453985
93	0xbdc1e152	-0.094668046
94	0xbe15e5d9	-0.14638461
95	0x3d0f987e	0.035057537
96	0x3b5cc3d0	0.003368605
97	0x3cbfbacc	0.023404501
98	0xbddfc690	-0.10926545
99	0xbda44f10	-0.080228925
100	0xbc499391	-0.012303249
101	0xbd86e713	-0.06587043
102	0xbd55cbd2	-0.05219633
103	0xbc9742a2	-0.01846439
104	0x3d69c623	0.057073724
105	0xbd77a67e	-0.060461514
106	0xbe3992f3	-0.18122463
107	0xbd278b00	-0.040904045
108	0xbe1b845a	-0.15187207
109	0xbd9175e7	-0.07102566
110	0xbdd59c98	-0.104302585
111	0xbda4c168	-0.08044702
112	0x3da108cc	0.07863006
113	0xbd8074b5	-0.0627226
114	0xbe321d4b	-0.17393987
115	0x3cff605d	0.03117388
116	0x3e24534c	0.160474
117	0x3dd322e4	0.10309389
118	0x3dee711d	0.116426684
119	0xbd1808a5	-0.03711762
120	0xbddccdef	-0.10781466
121	0xbe199c06	-0.15000924
122	0xbe6bd435	-0.2303017
123	0xbd679fd1	-0.056548897
124	0xbe2e27ae	-0.17007324
125	0x3db75f93	0.08953776
126	0xbd4b48a8	-0.049629837
127	0x3d6099a4	0.054834023
128	0x3d9c47fd	0.07630918
129	0xbb8769d6	-0.0041324897
130	0x3d633535	0.055470664
131	0xbd49db9a	-0.049281694
132	0xbdcef22a	-0.10104783
133	0x3bb18ac3	0.005418153
134	0xb89afdbc	-7.390554e-05
135	0xbe33a361	-0.17542793
136	0xbe627126	-0.22113475
137	0xbd2fc3ee	-0.042911462
138	0x3d814b3b	0.06313177
139	0xbd245d8e	-0.040128283
140	0xbd7a08fa	-0.061043717
141	0x3d6b97f8	0.057517976
142	0x3e0bc73a	0.13650218
143	0x3cc68bba	0.024236549
144	0xbdef06ac	-0.116711944
145	0xbcd8fc40	-0.02648747
146	0x3e0e1007	0.13873301
147	0x3d6cf614	0.057851866
148	0x3da3c43c	0.07996413
149	0xbdcda68c	-0.10041532
150	0x3ca013c4	0.019540675
151	0xbc9ba9f4	-0.019001938
152	0xbe10d693	-0.14144354
153	0x3d9c0f5f	0.07620119
154	0xbd1e6661	-0.038671855
155	0x3d4a4600	0.049383163
156	0xbda050c3	-0.07827904
157	0x3cb09696	0.02155618
158	0xbb655888	-0.0034995396
159	0x3c91cafa	0.017796982
160	0x3c47db77	0.012198321
161	0xbcab9de0	-0.020949304
162	0x3bc76af1	0.0060857465
163	0x3dade2b7	0.08490508
164	0xbde43a41	-0.111439236
165	0x3d29d752	0.04146511
166	0xbe083577	-0.13301645
167	0x3c56a23a	0.013100201
168	0x3d887c24	0.06664303
169	0x3c2d9b53	0.010596114
170	0x3d634c89	0.05549291
171	0xbcae5454	-0.021280445
172	0x3d686feb	0.05674736
173	0xbc620591	-0.013795272
174	0x3cc22196	0.023697656
175	0x3c918c99	0.017767237
176	0x3d9d4e01	0.07680894
177	0x3c1c2d08	0.009532221
178	0x3db9cfb1	0.09072817
179	0xbd8470a5	-0.06466798
180	0x3d99548e	0.07486831
181	0x3bb9cbc4	0.0056700427
182	0x3e264105	0.1623574
183	0xbc8a77fe	-0.01690292
184	0x3c3d240b	0.011544238
185	0x3e10551d	0.14094968
186	0x3dc0f830	0.09422338
187	0x3e0975fa	0.1342391
188	0xbd811d32	-0.06304397
189	0xbe0d29b9	-0.13785447
190	0xbdda4225	-0.10657147
191	0xbd9a5c02	-0.0753708
192	0xbd1e7d3d	-0.038693655
193	0xbc6bc1c5	-0.01438946
194	0x3d39c3be	0.04535269
195	0xbcfd811a	-0.03094535
196	0x3c43bbdd	0.011946646
197	0xbd8ca0af	-0.068665855
198	0x3cfdfdd9	0.031004833
199	0xbbee553b	-0.007273344
200	0x3e085ab7	0.13315855
201	0xbdcc0c3e	-0.099632725
202	0x3d69d8d8	0.057091564
203	0x3dcae6fa	0.099073365
204	0x3e574953	0.21024065
205	0xbd3ecbfe	-0.04658126
206	0x3dd5707f	0.104218476
207	0xbe07c0b7	-0.13257109
208	0xbd6170aa	-0.055039085
209	0xbc064fae	-0.008197708
210	0xbe21c5ad	-0.15798064
211	0xbccb847e	-0.02484345
212	0xbcc29a44	-0.0237552
213	0xbce7d60a	-0.028300304
214	0xbda21704	-0.07914546
215	0xbd814882	-0.06312658
216	0x3dc68416	0.09693162
217	0x3e1e426c	0.15455025
218	0x3d37e5f2	0.044897027
219	0x3d09d166	0.033646964
220	0xbd1de932	-0.03855247
221	0x3e09fffb	0.13476555
222	0x3ca9a33d	0.02070772
223	0x3e2e8bd7	0.17045532
224	0xbdd8bb14	-0.10582557
225	0x3b8ecf80	0.004358232
226	0x3d0dcf2a	0.034621395
227	0x3e222ce6	0.1583744
228	0x3e0dad4d	0.1383564
229	0x3e828df3	0.25498924
230	0xbdcd3448	-0.100197375
231	0xbd48ea69	-0.049051676
232	0xbe03b7c9	-0.12863077
233	0xbd858523	-0.065195344
234	0xbd3accae	-0.045605354
235	0xbdd9051c	-0.10596678
236	0xbe93f6bf	-0.2889919
237	0xbe8c59d3	-0.2741228
238	0xbe15c8c1	-0.14627363
239	0xbe19530a	-0.14973083
240	0xbd4121d2	-0.047151394
241	0x3df0c9d1	0.117572434
242	0xbd5fd905	-0.054650325
243	0x3d8c3b34	0.068472296
244	0x3cf9a50e	0.030474212
245	0xbd0a8d40	-0.033826113
246	0xbe1de0dc	-0.15417808
247	0xbe4a5bf0	-0.19761634
248	0xbd880f60	-0.066435575
249	0xbd671d9f	-0.056424733
250	0x3da33a80	0.07970142
251	0x3dc7dbe7	0.0975874
252	0xbce8af49	-0.028403895
253	0x3d7a418a	0.06109766
254	0xbb39fe10	-0.0028380193
255	0x3d95e864	0.073197156

bias f4 [128]
0	0x3c8eaa75	0.017415265
1	0xbcf127b9	-0.029437887
2	0x3d837ece	0.064206704
3	0x3d86b07d	0.06576631
4	0xbc6b90eb	-0.014377813
5	0xbc91b2e7	-0.017785503
6	0xbd2bcb12	-0.04194171
7	0xbc6940ad	-0.014236611
8	0xbc2729d4	-0.010202844
9	0x3cc64aac	0.024205528
10	0xbd3d4307	-0.0462065
11	0x3ba941f8	0.005165335
12	0xbb15f743	-0.0022882975
13	0x3c89a42d	0.016801918
14	0xbb017cdd	-0.0019758262
15	0xbc81d16b	-0.015846929
16	0xbcb65aaa	-0.022260029
17	0x3ce546cc	0.02798786
18	0xbc92c35e	-0.017915424
19	0x3cb0d559	0.021586107
20	0xbbb2d197	-0.005457114
21	0xbd2b877d	-0.04187726
22	0xbd45eada	-0.048319675
23	0xbc58f458	-0.01324185
24	0x3c453271	0.012035952
25	0x3c8ee6e9	0.01744409
26	0xbb65eaf3	-0.0035082668
27	0xbce6dfbf	-0.028182862
28	0xbd66c472	-0.05633969
29	0xbcf489b7	-0.029850824
30	0xbce6f085	-0.02819086
31	0xbc9bcf69	-0.0190198
32	0xbc039e1a	-0.0080333
33	0x3dac8231	0.084232695
34	0xbd092c3f	-0.033489462
35	0xbcf04959	-0.02933185
36	0x3b71c968	0.003689373
37	0x3a8187bf	0.0009882374
38	0x3ca47b7e	0.020078417
39	0x3c54b63f	0.012982904
40	0xbc5c89d3	-0.013460594
41	0x3d8b9d16	0.06817071
42	0xbb1c77eb	-0.0023875188
43	0xbca90b78	-0.020635352
44	0xbca974d1	-0.020685585
45	0xbd44b728	-0.048026234
46	0xbcad809e	-0.021179494
47	0xbcaded57	-0.021231337
48	0xbd23bec2	-0.039976843
49	0xbc7a9516	-0.015294334
50	0x3cd43203	0.025902754
51	0x3bc2b5c4	0.0059420783
52	0xbc9c6fbd	-0.01909625
53	0xbcf1591b	-0.029461434
54	0x3d184b05	0.03718092
55	0xbcafe8c8	-0.021473303
56	0xbcfa782d	-0.030574882
57	0xbce25203	-0.027626997
58	0xbcc338e3	-0.023830837
59	0xbc77dc40	-0.015128195
60	0x3d2b798f	0.041863974
61	0x3cce2d25	0.025168011
62	0x3c8698de	0.016430315
63	0xbc22ca3d	-0.009935913
64	0xba41c078	-0.0007391046
65	0xbcb01129	-0.021492558
66	0xbcf47925	-0.029842922
67	0xbd072896	-0.03299769
68	0x3d11fd75	0.035642106
69	0xbd3339d6	-0.04375633
70	0x3c85bb8c	0.01632478
71	0x3c127504	0.0089390315
72	0xbde8bbf7	-0.113639764
73	0xbc5581ea	-0.013031462
74	0xbb918a17	-0.0044415104
75	0xbd3479d1	-0.044061486
76	0xbcbc7300	-0.023004055
77	0xbd66e658	-0.056372017
78	0x3b6f6b79	0.0036532565
79	0xbc8a9895	-0.01691846
80	0xbdb619a6	-0.08891611
81	0x3c92eefb	0.01793622
82	0xbd659db3	-0.056058597
83	0xbb50ccbc	-0.0031860312
84	0x3b3b4838	0.0028576981
85	0xbc8635b1	-0.016383024
86	0xbbf93ea0	-0.0076063424
87	0x3c228e9c	0.009921696
88	0xbc8c801a	-0.017150927
89	0x3c2f100b	0.010684977
90	0xbc787351	-0.015164212
91	0xbb55e875	-0.0032639776
92	0xbd1cdbf9	-0.03829572
93	0x3d2c51bb	0.04207013
94	0xbaa9c3bc	-0.001295201
95	0xbd126e8d	-0.03574996
96	0xbc03f6f7	-0.0080544865
97	0xbd0fd777	-0.035117593
98	0x3cb77574	0.022394873
99	0xbc949b1d	-0.01814037
100	0x3b46d6af	0.0030340364
101	0x3c47ba55	0.012190421
102	0xbcb3a415	-0.021928826
103	0xbc323d09	-0.01087881
104	0x3cdf5e8d	0.027266765
105	0xbc59e92d	-0.013300222
106	0xbc01f991	-0.007933036
107	0x3d5775d6	0.05260261
108	0x3d12fb9a	0.035884477
109	0x3b263b5a	0.0025364966
110	0x3cb1dbc9	0.021711247
111	0x3ce108d8	0.027470037
112	0xbd758e20	-0.059949994
113	0x3da7927c	0.081822366
114	0x3cf4edf3	0.02989862
115	0xbaabd878	-0.0013110777
116	0x3c8421b0	0.016129345
117	0x3c93f1b7	0.018059595
118	0xbc9e62fd	-0.01933431
119	0x3ccfc2c1	0.02536142
120	0x3c8bcaf9	0.017064558
121	0xbac9189d	-0.0015342418
122	0xbd8b5f00	-0.06805229
123	0x3ce6fcac	0.028196655
124	0xbc9fa2f0	-0.019486874
125	0x3c633452	0.013867455
126	0xbd18bc4a	-0.03728894
127	0xbb843226	-0.0040342985

weight f4 [10, 128]
0	0x3d75b888	0.059990436
1	0x3da5df55	0.08099238
2	0xbe350727	-0.1767851
3	0x3d386df3	0.04502673
4	0xbd88236d	-0.06647382
5	0x3d9af5b3	0.07566395
6	0x3dced600	0.10099411
7	0xbe2d2c16	-0.16911349
8	0x3d4416f4	0.047873452
9	0x3d2f08aa	0.042732872
10	0x3d2e3a3c	0.042536005
11	0x3e7f2e9d	0.24920125
12	0xbe052349	-0.13001741
13	0x3e8e46a6	0.27788275
14	0x3b4544f6	0.0030100918
15	0xbd910dea	-0.07082732
16	0x3c48f410	0.01226522
17	0xbda02b55	-0.07820765
18	0x3d054556	0.032536827
19	0x3dbe298e	0.0928527
20	0xbea5fd43	-0.32419786
21	0xbe473a6f	-0.19455884
22	0x3d2110ef	0.03932279
23	0x3d889557	0.06669109
24	0x3da8fa98	0.08250922
25	0xbd03f9f6	-0.032220803
26	0x3dadce74	0.084866434
27	0xbce8f593	-0.028437411
28	0xbe6902e2	-0.22755006
29	0xbcbc79a0	-0.023007214
30	0x3db711fc	0.08938977
31	0x3da36143	0.079775356
32	0x3d10312f	0.035203155
33	0xbd36293a	-0.04447291
34	0xbd978c14	-0.07399765
35	0x3da2785f	0.07933115
36	0xbcf5dc74	-0.030012347
37	0x3d47a798	0.048743814
38	0x3dc29501	0.095010765
39	0xbd41b465	-0.04729118
40	0x3d64d575	0.05586763
41	0xbd1956ac	-0.037436172
42	0x3dd24cd0	0.10268557
43	0x3dc5df77	0.09661763
44	0x3d9845b7	0.07435172
45	0xbd0024fb	-0.031285267
46	0x3b8ca203	0.0042917742
47	0x3d45abaf	0.048259433
48	0xbe66399f	-0.22482918
49	0xbe0c6153	-0.13709001
50	0x3db74961	0.08949543
51	0xbd6dcc06	-0.0580559
52	0x3d4a3719	0.04936895
53	0x3cae475f	0.021274267
54	0x3df26004	0.1183472
55	0xbda3a994	-0.07991329
56	0x3e13c56a	0.14430776
57	0xbd959e29	-0.07305557
58	0xbcb8c6e7	-0.022555782
59	0x3ccb1e3f	0.024794696
60	0xbe229db1	-0.15880467
61	0xbd2307c7	-0.03980234
62	0x3e1ef74e	0.15524027
63	0xbde0ad6a	-0.10970576
64	0x3bda46bb	0.0066612638
65	0x3df33109	0.11874587
66	0xbd61e382	-0.05514861
67	0xbdbfe55d	-0.093699194
68	0x3ca6fa8a	0.020383138
69	0xbe4ca03d	-0.19983001
70	0xbd92dba7	-0.071708016
71	0xbe91632f	-0.28395984
72	0x3d7ec85e	0.062202804
73	0x3bdcfa25	0.0067436867
74	0x3e4868bc	0.19571203
75	0xbd8f5f34	-0.070005804
76	0xbda25cf8	-0.07927889
77	0xbd93af84	-0.07211211
78	0x3c843654	0.016139187
79	0xbce52964	-0.027973838
80	0x3ce667f3	0.028125739
81	0xbe204834	-0.15652543
82	0xbe827972	-0.2548328
83	0x3d075227	0.03303733
84	0x3d7562ab	0.05990855
85	0xbd8aa6a4	-0.067700654
86	0x3db853ea	0.0900038
87	0xbc0701ec	-0.008240204
88	0xbce84aca	-0.028355975
89	0x3d270ad4	0.04078181
90	0x3cc35c79	0.023847805
91	0x3df9936d	0.12186322
92	0xbdbfff61	-0.093748815
93	0xbda83ded	-0.082149364
94	0x3d993c4f	0.07482206
95	0x3d404dcf	0.046949204
96	0xbe037fae	-0.12841675
97	0x3d289668	0.041159064
98	0xbd315e82	-0.04330302
99	0xbd1c09bb	-0.038095217
100	0x3d4a885a	0.04944644
101	0x3d521898	0.051292986
102	0x3d510942	0.05103422
103	0x3dbc7e6f	0.09203803
104	0x3daae6f9	0.08344836
105	0xbe042925	-0.1290632
106	0x3c434756	0.011918863
107	0xbe7c5cb5	-0.2464474
108	0xbe7e82bb	-0.24854557
109	0x3d68fb92	0.05688054
110	0xbed35111	-0.41272786
111	0x3d53e0c8	0.05172804
112	0x3cd097e3	0.02546305
113	0xbdf219f4	-0.118213564
114	0xbdb4a56d	-0.08820615
115	0x3d1efc77	0.038814988
116	0xbc9955ca	-0.018717665
117	0xbc894660	-0.01675719
118	0xbd5c305c	-0.053757057
119	0xbd53d004	-0.05171205
120	0x3de70f06	0.11282162
121	0xbd90127b	-0.07034775
122	0x3cb25b7e	0.021772142
123	0x3de3d0b8	0.11123794
124	0x3d008278	0.031374425
125	0x3be4a9ad	0.0069782347
126	0xbbd91710	-0.0066250637
127	0xbd84f8d1	-0.064927705
128	0x3d075871	0.03304333
129	0xbd97be51	-0.07409347
130	0x3dd3d94b	0.1034418
131	0x3dd47776	0.10374348
132	0xbe78af5c	-0.24285644
133	0xbd33b81c	-0.043876752
134	0x3e41e805	0.18936165
135	0x3c69d667	0.014272309
136	0x3d5a1d8a	0.053250827
137	0x3af42e77	0.001862957
138	0xbe24ab2a	-0.16080919
139	0xbd9d1673	-0.076702975
140	0x3d83363d	0.064068295
141	0x3db2115f	0.086947195
142	0x3d670299	0.05639896
143	0xbdbf78b9	-0.09349198
144	0x3cc81969	0.024426179
145	0x3e06f71b	0.13180201
146	0x3d2caf40	0.04215932
147	0x3e0d1ec7	0.13781272
148	0x3d524b0d	0.051341105
149	0xbdb3c7c0	-0.08778334
150	0xbd098b3e	-0.033580057
151	0x3da2e8f6	0.0795459
152	0xbd4ce6fe	-0.05002498
153	0xbc56bf2c	-0.013107102
154	0x3d14bc39	0.036312316
155	0xbdef759b	-0.11692353
156	0x3bbeb503	0.005819918
157	0x3d3d60db	0.046234947
158	0xbe4ed7d6	-0.20199522
159	0x3e884cb5	0.26621023
160	0xbd83c478	-0.06433958
161	0x3e6fd5a4	0.23421341
162	0xbe057f2d	-0.13036795
163	0x3d0ff687	0.035147216
164	0x3d87ce55	0.066311516
165	0xbe2f54fe	-0.17122266
166	0xbe4e1bc8	-0.20127785
167	0xbd58e71c	-0.052954778
168	0xbdab53a5	-0.08365563
169	0x3dbc4528	0.09192878
170	0xbc2266bf	-0.009912192
171	0xbe902cae	-0.28159088
172	0x3b9b9e0c	0.0047490653
173	0x3d3cd11a	0.046097852
174	0x3d4a272d	0.049353767
175	0xbbe4af8b	-0.006978934
176	0xbdabc5df	-0.0838735
177	0xbc32b3f3	-0.010907161
178	0xbd1fe43a	-0.039036013
179	0xbc427604	-0.011868957
180	0x3cefa2c1	0.029252412
181	0x3d2e394a	0.042535104
182	0x3da0bc34	0.07848397
183	0x3c70e187	0.014702207
184	0xbe1a4a30	-0.15067363
185	0x3cd48073	0.025940156
186	0xbb7244fd	-0.003696739
187	0x3d20f090	0.03929192
188	0x3cc86caa	0.024465878
189	0x3d5a9893	0.053368162
190	0x3d20b40a	0.0392342
191	0xbe2290eb	-0.15875594
192	0xbd13388b	-0.035942595
193	0xbc2311ee	-0.009953005
194	0x3d7e2808	0.062049896
195	0x3d5c6afe	0.053812973
196	0x3dee23d6	0.11627929
197	0xbe04ac3c	-0.12956327
198	0x3d1fed91	0.03904492
199	0x3d229fc4	0.039703146
200	0xbd8ed58b	-0.06974324
201	0x3d057fe8	0.032592684
202	0xbe5874b0	-0.21138263
203	0xbd3d2615	-0.046178896
204	0xbdadf7ce	-0.084945306
205	0xbe8a0519	-0.26957014
206	0xbc4976eb	-0.012296419
207	0x3c8809b6	0.016606193
208	0x3c6bdff5	0.014396657
209	0x3cebf27a	0.028802145
210	0xbe022ef3	-0.12713222
211	0xbd236074	-0.039886907
212	0x3cae103b	0.021247974
213	0xbd18dfc8	-0.03732279
214	0x3d9705e8	0.073741734
215	0xbc72f8a0	-0.014829785
216	0x3d390c70	0.045177877
217	0x3ce8caa9	0.028416948
218	0x3d8f2337	0.069891386
219	0x3df34ec9	0.118802615
220	0xbdd51f97	-0.10406416
221	0x3cbbfe72	0.022948477
222	0x3db4873e	0.08814858
223	0xbe368ad9	-0.17826404
224	0xbde76a04	-0.11299518
225	0xbe31f6b0	-0.1737926
226	0x3e0b118b	0.13580911
227	0xbdb0b814	-0.0862886
228	0x3e01a834	0.1266182
229	0xbd38abc2	-0.045085676
230	0x3cd62aeb	0.026143512
231	0xbe4abccc	-0.19798583
232	0x3d59a510	0.05313593
233	0x3d94d7f1	0.0726775
234	0xbd154fee	-0.03645318
235	0x3dc9cb05	0.09853176
236	0x3e5e915e	0.2173514
237	0xbdf1aa05	-0.11800007
238	0x3d326dc8	0.043561727
239	0x3bb53745	0.0055302703
240	0xbe33746c	-0.1752488
241	0x3dece3ff	0.11566924
242	0x3d1962a0	0.03744757
243	0xbc496665	-0.012292479
244	0x3da2ee22	0.079555765
245	0x3d73923c	0.05946563
246	0xbdb9f1d0	-0.09079325
247	0xbde3b226	-0.111179635
248	0x3d6b5d4e	0.05746203
249	0x3d3041eb	0.043031614
250	0xbcf1c244	-0.029511578
251	0x3da69f14	0.081358105
252	0xbe941d4d	-0.28928605
253	0xbd8476d4	-0.06467977
254	0xbe1de48c	-0.15419215
255	0xbd1f1e3c	-0.038847193

bias f4 [10]
0	0x3d322b64	0.04349841
1	0x3cc2ab35	0.023763278
2	0x3d1ea3d1	0.038730446
3	0x3b8bacac	0.0042625275
4	0xbd2c19af	-0.04201668
5	0x3cd97c01	0.026548387
6	0xbdd6b799	-0.10484237
7	0x3dfbd53c	0.122965306
8	0xbc909641	-0.017649772
9	0xbd951539	-0.072794385
