data/Pt/model2.pt (torch, 192885 bytes, 10 tensors)

weight f4 [6, 1, 5, 5]
00000000: 19c5 023d 3324 313e 5eb0 9e3e 8864 a83e
00000010: 0f79 603e f97f db3e d4ed b43e 2bc2 493e
00000020: 3434 913e 46fd 243e 1d69 ab3e 84b8 ca3e
00000030: 2d81 573e 0918 bb3e 375f b63e d3d1 043d
00000040: 9aab 253e c58d adbd 2917 8c3c 56b1 3c3e
00000050: 336f 4abe 6525 cabd 0718 b83d db52 81bb
00000060: c943 46be 3b1a ebbc 75b9 9bbc de48 a43e
00000070: a8e4 8cbd 0102 9bbd a455 2c3e 02fc b23e
00000080: 934b a33e 7028 b7bd b2bc e2bd 6570 b23e
00000090: 668a d63e 1e4c 2d3e cac1 943e 8d70 6abd
000000a0: e2f3 693d e4c1 713e b1e8 f43d 9643 a13e
000000b0: c8c7 213e 8c21 d9bd 1a7c c13d 39b4 373e
000000c0: beee 263e 7382 5d3d 65c9 953d 5e92 cc3d
000000d0: be74 0dbe 732a 1bbe 1aee 253e c4fe f2bd
000000e0: 4dcb 71be 8cf5 153d bce6 d2bd 8d44 853e
000000f0: 731b 47bd d9dd 0fbd 2572 1bbe 484f d83d
00000100: 52b5 0a3d 5ba9 e2bd 6a2e 153d f038 33be
00000110: fcb2 8a3d 9438 f53d 0383 28bd bea3 0bbe
00000120: 86cd 4bbd d530 3c3d c431 823e f63a 84bd
00000130: d4fa 31be 3edd 3e3d 8273 0fbe 7b7a 9ebd
00000140: a011 c7bc 9576 f43c bee2 e63c 57bc c33c
00000150: 4a8c 28be 2cb5 06be 17f6 753d 37df c1bd
00000160: 667b 48be 1423 dd3d 962e 0fbe b3c2 0a3d
00000170: a9e1 1cbe bb33 a93d abf8 053d 5b51 ec3d
00000180: b3b7 213e 3e99 40be 9f05 fbbd 7e0f 32be
00000190: 1835 693e 861f 803e fb03 843c bd5e 4f3d
000001a0: d6da 193e a16d 513e d0df 6b3d cc48 593e
000001b0: 71ad 3e3e 399c 163e 4672 c03e d279 b63e
000001c0: 7999 bf3e a415 01bd d69a 23be de7b 9c3e
000001d0: 7329 d53e 32d2 07bd b582 36bd 0e28 1dbe
000001e0: e838 c83d 897a ae3e 92f0 393e b798 093e
000001f0: 0fb0 36bd 13ed 5d3e 5962 303d 1f17 d83d
00000200: cbe3 5f3e aaa3 a23e 0dd7 d1bd 6aeb 103d
00000210: 6246 f33d 2fae 913e cb78 ed3e d5e0 a6bd
00000220: abb1 053e c775 04be ecf0 c23e cf55 cf3e
00000230: db5d a6bd 1c94 c7bc b274 1abe ca88 bb3c
00000240: 57c1 a13e 73f7 b4bd 35f4 5ebe 22ca 903d
00000250: c440 cebd 9188 463c
0.03192625 0.17298965 0.30993932 0.328892 0.2192118 0.42871073 0.35337698 0.19702975
0.2836014 0.16112241 0.33478633 0.395939 0.2104537 0.36541775 0.35619518 0.032426666
0.16178742 -0.08474306 0.017100887 0.18427023 -0.19768982 -0.09870414 0.08988958 -0.0039466447
-0.19361795 -0.028699031 -0.019009331 0.32086843 -0.0687955 -0.075687416 0.16829544 0.34957892
0.31893596 -0.0894326 -0.11071147 0.34851375 0.41902465 0.16923568 0.290541 -0.057236243
0.05711735 0.2360912 0.11958445 0.31496876 0.15798867 -0.10602102 0.094474986 0.17939843
0.1630201 0.054079484 0.073138036 0.09988855 -0.13814065 -0.15152912 0.1620411 -0.11864999
-0.2361271 0.036611125 -0.10297915 0.26028863 -0.048610162 -0.03512368 -0.15180261 0.10561997
0.033864327 -0.11067458 0.036421217 -0.17502189 0.0677242 0.11973682 -0.041140568 -0.13636681
-0.04975655 0.045945007 0.25428593 -0.064565584 -0.1738084 0.04659771 -0.14008906 -0.07738205
-0.024300396 0.0298417 0.028184291 0.023893518 -0.16459766 -0.13155049 0.060049143 -0.09466403
-0.19578323 0.10797706 -0.13982615 0.033877086 -0.15320458 0.0826182 0.03270785 0.11538955
0.15792732 -0.18808457 -0.122569315 -0.17388722 0.2277416 0.2502405 0.01611518 0.05062746
0.15024886 0.20451976 0.05758649 0.21219176 0.1862085 0.14708032 0.37587184 0.35639817
0.37421778 -0.03151478 -0.15977034 0.30563253 0.41633186 -0.033159442 -0.044558246 -0.15347311
0.09776479 0.34077862 0.18158177 0.13437162 -0.044601496 0.21672468 0.04306254 0.10551285
0.2186424 0.3176549 -0.10246096 0.03538076 0.11878659 0.28453204 0.4638122 -0.08148352
0.13056056 -0.12935553 0.38074434 0.40495154 -0.0812337 -0.024362616 -0.15083578 0.022892375
0.3159282 -0.0883626 -0.21772845 0.07069804 -0.10070947 0.012117521

bias f4 [6]
00000000: 8478 8c3a e421 df3c 8dea ee3d ba15 0e3e
00000010: 0eb1 73bd c36f 043e
0.0010717069 0.02723784 0.11665831 0.13875476 -0.059495024 0.12933259

weight f4 [16, 6, 5, 5]
00000000: 495d 61bd ccc1 2b3d fdc7 123b ded7 18be
00000010: 7e28 82bc 5d28 b1bd f9e9 babd 6d01 ebbd
00000020: afb7 cdbc 59bf afbd 00f6 a4bd 880c c73c
00000030: 970b 7e3d 8251 b73d 687a 6fbc bf34 c63d
00000040: 7035 8a3d 3ae6 1cbc 7005 d83d 564b 263d
00000050: a573 873d 6b82 ab3d fccd 213d b68b 853d
00000060: 3df8 58bd e8d5 c23c ce23 9fbd 60a0 4cbd
00000070: 3458 2b3c c958 5dbd 1e49 833d 4481 9bbc
00000080: 8293 2f3d 3679 89bd c55e a13d 679d 0fbc
00000090: 5c09 4dbd 1fd9 64bd 3151 26bd 45ac b53d
000000a0: d0fa 3d3d ad5b 1f3d 6ed3 143d 5116 013e
000000b0: fbc6 bf3d bb6d 103d daf3 0a3d cc01 ed3c
000000c0: f587 b33d 217d 983c fcb7 b4bd 8eed f2bb
000000d0: 9a23 c43c 9aa3 3fbd e188 bb3c 88dd 173a
000000e0: 4d82 06bc f4b7 6a3d 65d5 7abd cb4b 533b
000000f0: ab22 92bd 8b7a e23c ea3f 123c a97a 3cbb
00000100: 2ee2 69bd ba42 f43c 86dd 5f3d 59e8 f43b
00000110: 0491 9ebd 5bb3 4b3d 3a8e 873d 6385 3bbc
00000120: 4e4d 2d3d 4b89 343b e026 6f3b f713 393d
00000130: e861 82bc 4974 bbbc d5a1 803d e849 63bc
00000140: ce59 753d ed15 863d 3629 bbbc 02b8 4cbd
00000150: 0111 afbc 2194 613c c978 c73b 99cb 1e3d
00000160: 9e53 8abd a691 bdbb 13b3 823d a779 05bd
00000170: d309 633d 8be7 c43c 8ba0 883d 2337 813b
00000180: b21d 963d 63f2 543d dee0 853c 834c f7bc
00000190: b58a 873d baf6 64bd 2285 92bd c269 3e3c
000001a0: 90b8 4cbd ae9c 66bd d3d4 7ebb 6279 18be
000001b0: e6bc bfbc 2cde 50bd 40b5 a6bc a71a 3ebc
000001c0: 5a00 7d3d d4e1 283d 2cb9 e33d 5e43 7dbd
000001d0: 9c32 793d 7471 993d 4fc3 4f3d 90cd c5bc
000001e0: 002f 103d 70cc f53b 0672 3a3c 123c 923d
000001f0: bd42 5a3c e8b4 bd3c 66c1 8ebd 37c4 093d
00000200: 960a acbd cbb3 c1bc 758b 14bb 23d0 1ebd
00000210: 9085 81bd de09 873d a9d5 623d 3df4 debd
00000220: 038b 0ebd 4633 8b3d 98b4 dc3c 6cfb 563d
00000230: 8f67 373d ccb8 f33c b0fd 39bd 5fd7 923d
00000240: dc54 c4bc fccb 19bc f604 0d3c 02a6 7bbd
00000250: 2e18 81bc 82ff 123d 9037 d43c 8200 c93d
00000260: 46f3 983b ddfa 373d d436 3e3d fc4a 8ebd
00000270: 605c c4bd e9fa 0ebc c057 573d b2de 8e3d
00000280: 3aa3 e5bc 48b0 00be a7ad 05be fc16 b53d
00000290: 3b28 ac3c 73ba e13c 26b9 15be 03dc e33c
000002a0: 9501 a4bb 11d4 3a3d 151f 073d c829 11bd
000002b0: cdb1 f8bc 7422 aebc bfbf 0bbd 59ae be3c
000002c0: 0923 9a3c 49ea c7bc 89ba 8b3d 96c8 ed3c
000002d0: b7d2 2a3c b07a 22bc 3954 7bbc 4697 9a3c
000002e0: 1fbc 033e dbf8 c8bd 0cbd f5bd 1e78 69bd
000002f0: 220f e63c eef5 163e c744 dbbd 0680 3dbd
00000300: a91a 983c c83e f8bc 3a7b 113d e077 65bd
00000310: 47a0 233d 5d0c 8bbd 8f86 103d f0e8 b63d
00000320: c846 d23a 2b71 90bd b825 723c 5430 b4bc
00000330: 4c92 8cbd 9e9e acba 24a5 b1bd af67 f83d
00000340: 4e18 df3d fa24 8b3d 4d24 b03c dde6 163d
00000350: 501e d83d abfd f33d 7c13 d83c 6256 7dbd
00000360: a6bf 02bd 1e2a 063d 8455 b53b 6a8c 45bc
00000370: bd3b d8bc d1ee 263c 2090 4d3d 324d fdbc
00000380: 69f6 53bd f64c 493c d309 a53d 6fe2 1d3d
00000390: 6257 71bc 71ce f7bc c9ca bcbc c588 91bc
000003a0: e896 28bd bd96 8a3d 8fbf 78bd 868f 0f3d
000003b0: 5eee 5e3c 042b e0bb 6763 9abd 7988 cbbc
000003c0: ea3d bcbc 356f 5f3d 4317 053d 6373 3bbd
000003d0: 5fcb c13c eb41 4c3d 497e 42bd 21ba f4b8
000003e0: 1b2c 603d 69b7 88bd d8ba 393d 16de c23d
000003f0: 0150 3d3d fe3e cdbd c31d 2a3d 1990 49bd
-0.055020604 0.041932866 0.0022397034 -0.14926097 -0.015888449 -0.08650277 -0.09126658 -0.11474881
-0.025112001 -0.085814185 -0.08054733 0.024297968 0.06202277 0.08951093 -0.014616586 0.09678029
0.06748474 -0.009576375 0.10547912 0.04059919 0.06613854 0.08374485 0.039503083 0.06520788
-0.052971113 0.02378364 -0.07770501 -0.049957633 0.010458041 -0.05403975 0.0641043 -0.018982537
0.042865284 -0.06712572 0.07879404 -0.008765555 -0.050057754 -0.055871125 -0.040604774 0.088707484
0.04638177 0.03890579 0.036334448 0.1260617 0.093641244 0.035260897 0.03392396 0.02893152
0.08766166 0.018614354 -0.08824155 -0.0074135726 0.023942757 -0.046786882 0.022892417 0.00057932036
-0.008209777 0.057304338 -0.061238665 0.003224122 -0.07135519 0.027646324 0.008926371 -0.0028759635
-0.057100467 0.029816974 0.05465462 0.007473987 -0.07742503 0.049731594 0.066189244 -0.011445376
0.04231005 0.0027547653 0.0036491677 0.045185056 -0.015915826 -0.022882598 0.06280867 -0.013872601
0.059900098 0.06547151 -0.0228468 -0.04998017 -0.021370413 0.013768227 0.0060873968 0.038768385
-0.0675423 -0.005785185 0.06381812 -0.03258672 0.05542929 0.02403619 0.06671246 0.0039433404
0.07329883 0.05198897 0.016342577 -0.03018785 0.06618253 -0.05589936 -0.07154299 0.011621894
-0.0499807 -0.056301765 -0.0038884177 -0.14890054 -0.023405503 -0.05099313 -0.020350099 -0.011603034
0.061767913 0.04123099 0.11119303 -0.061831824 0.06083928 0.074923426 0.05072337 -0.024145871
0.035201073 0.0075011775 0.011379724 0.07140364 0.013321576 0.023157552 -0.069704816 0.03363439
-0.084004566 -0.023645302 -0.002266613 -0.038772713 -0.06324303 0.06593679 0.055379543 -0.108864285
-0.03480054 0.06796889 0.026941583 0.05248587 0.044776496 0.029751204 -0.04540795 0.07169985
-0.023966245 -0.009387013 0.00860714 -0.061437614 -0.0157586 0.035888202 0.0259054 0.0981455
0.0046676723 0.044916976 0.046439007 -0.06947896 -0.09587932 -0.008726814 0.05257392 0.069760695
-0.028031934 -0.12567246 -0.13054524 0.088422745 0.021015277 0.027554726 -0.1462141 0.02781487
-0.0050050714 0.0456124 0.032988627 -0.035440236 -0.03035822 -0.021256663 -0.03411841 0.023276495
0.018815534 -0.024403708 0.06822688 0.02902631 0.010426215 -0.009916946 -0.015339904 0.01887096
0.12864731 -0.098130904 -0.119989485 -0.05699932 0.028083388 0.14742252 -0.107064776 -0.04626467
0.0185674 -0.030303374 0.03551791 -0.056022525 0.039947774 -0.067894675 0.035284575 0.08931148
0.0016042823 -0.07052835 0.014779501 -0.0219957 -0.068638414 -0.001316983 -0.08674076 0.12129151
0.108933076 0.06794162 0.021501685 0.036841262 0.10552657 0.11913618 0.026376478 -0.06184996
-0.03192105 0.03275501 0.005533876 -0.012057403 -0.026395673 0.010188774 0.050186276 -0.030920599
-0.051748667 0.012286415 0.080585144 0.038546022 -0.014730306 -0.030249806 -0.023045914 -0.017765412
-0.04115954 0.06767032 -0.06072956 0.035048984 0.013606636 -0.0068410654 -0.07538491 -0.024845349
-0.022978742 0.054549415 0.032492887 -0.04576434 0.023656545 0.04986755 -0.047483716 -0.00011669496
0.054729562 -0.06675608 0.045344204 0.09515016 0.046218876 -0.100217804 0.04153229 -0.049209688

bias f4 [16]
00000000: 2ecb 193d 37cc 663d 6dc5 04bd 5fe3 b6bb
00000010: e0a2 40bc a28c e3bc 1f73 683d 2275 d43c
00000020: 7961 e4bd b19c 9bbd 00cb 98bb 2423 65bd
00000030: b09a c13c 7a98 d6bd f212 633d f082 073d
0.037547283 0.0563471 -0.032414842 -0.005581304 -0.011757582 -0.02777702 0.056750413 0.02593476
-0.11151404 -0.07598246 -0.0046628714 -0.055941716 0.023633331 -0.10478301 0.05543799 0.033083856

weight f4 [120, 256]
00000000: 92e2 db3b 60d2 fc3c 1e49 9b3c ef0e 4a3d
00000010: 7939 d9bc cfd3 643d 3772 a7bb c5ad 603d
00000020: d570 a7bd 852c 2dbd 22c3 8e3d 11c1 323d
00000030: 97b6 b23c 97aa 01bd 3f3c 7f3d 7d77 8e3a
00000040: 5ff9 a4bb 876b b63c 66ea 5abd 4754 453d
00000050: 31e6 30bd b5d6 3c3d 0f4f b43d bb9d 0b3d
00000060: 13e3 ecbc f713 5b3d 767e 7c3d e014 903c
00000070: d012 d73b 4284 a6bc f259 423d 0e58 4e3d
00000080: b41a e7bc fd28 c83b 8909 073d 326a eebb
00000090: e4bc 6b3d a446 503d ad02 bcbc 98f5 a63c
000000a0: 2ce4 333d 78ff fdbc a801 793d b491 223d
000000b0: cbde c23c fff1 d1bc dfd0 2a3d 4aa5 62bd
000000c0: fe28 903c 5a5a 3c3d fe67 423b ce79 933d
000000d0: d27d 86bc 486f 72bd 1f37 1ebd 8118 2d3d
000000e0: 3cfb 7e3d 75d7 7dbd 38ce 963c 4812 0abd
000000f0: c1ca 6e3d 8fc0 be3a 7461 33bc 2e4e 8cbd
00000100: 251b 983c 097e 2d3d 6e94 443a 0f7c 2a3d
00000110: 362b 733b 947e 3f3b 9141 613c 1628 87bc
00000120: 39e9 703c 216c 4fbd 71e2 d83a 3805 56bd
00000130: f1e7 663d 4879 033d 334a 643d 3cc4 02bc
00000140: 1254 d2bb 2e51 483d e52c d33b 847f ccbc
00000150: 7d5d 593d 5b5c 57bd 07f2 d13d d895 063d
00000160: a4db b2bc e5b9 3c3c e5c7 913d 5209 b9bc
00000170: 7df9 913c 0fc9 963d c37c 973c 2f08 1abd
00000180: 6867 1e3c 70bf 4dbc 380e 1bbd b5a4 19bd
00000190: 4895 123c d0e6 ee3d 0672 41bb 932e 57bd
000001a0: 5c61 02bd 827f 8f3d 36a2 a43a 9059 2f3d
000001b0: 0e1f 2dbd 9d24 babc f68d 5ebc a1fb fcbc
000001c0: 62f1 21bd 1bde 5bbc 2080 983c 6fd4 653c
000001d0: 9a86 7fbc 7818 3d3d 4045 323d d780 893d
000001e0: e88c 10bd 8b4e 18bd bbfc 863d 8017 2d3d
000001f0: c1f6 7dbd 51ba 30bd 38da dc3b bc57 f5bb
00000200: 1f93 d4bc da90 783d 2f63 aa3c 964d bf3c
00000210: 8f23 c2bc 8976 8dbd e395 a3bc e1ef b6bb
00000220: cc5e 1abd f175 8dbc 44e7 883c 3742 18bd
00000230: c4d6 143d 299e 59bd d08f 633a 2070 233d
00000240: 0336 0bbd f3f6 debc d967 813d 5826 043d
00000250: 1e6b a93d 27b6 33bd 3e1a babc ded1 ba3d
00000260: f1bc 163d 0372 75bd bc8f e0bc e89b 85bb
00000270: 497d 24bd 1c47 bcbc cc69 83bb 48b1 6f3b
00000280: 95f2 24bd 4683 0dbd 7c2b b13d 44ed 213d
00000290: 2041 5f3b 3d94 cf3c e201 bd3d be17 b43a
000002a0: 9195 f7bc 3fad 9dbd c998 363d 410a c93c
000002b0: 2530 5bbd 2896 5a3c 15f6 9fbd 22fc e83c
000002c0: 37aa 523d a7b6 d9bc 694b 67bd 7591 07bc
000002d0: 6e74 4d3d db4f f3bc c703 0b3d 85dd 75bc
000002e0: 873d a5bc 0236 36bd 6ada 8f3c c320 53bd
000002f0: d035 2c39 2302 c83c 491c 883c b4ef 0c3d
00000300: 6e58 873d 103c f93c b0d3 773d 8fa5 bc3d
00000310: 9bcf 70bd da18 5fbb 9f01 8fbd 9a36 68bc
00000320: fd51 4c3d 20fb adbd b9b0 21bd 6b97 883d
00000330: a3db ebbc 3121 dd3c 8e9c 873d 8615 60bb
00000340: f558 0dbd 8592 eebc b512 95bd 318a a33c
00000350: fc82 29bd cc04 1bbc 4c6c 2ebb 8eba 9f3a
00000360: b401 003d f022 dfbc 72a8 e0bc c16e f0bb
00000370: 7f6f 0cbd 6999 8abd 04fe 093c 341a b93b
00000380: 764f 753c 5e1a f73c 96ce 54bb 4b52 02bd
00000390: e3db 273d 0728 0e3d 8b0c 8abc ae0f 373b
000003a0: fd9a 083c 1807 9b3c 03b8 033c d86c 383d
000003b0: 46b2 893d 5674 68bd 7f25 af3c 67e6 47bc
000003c0: ad23 1bba d368 a8bc a2a6 3ebd 4b91 2cbd
000003d0: 7c3c 5d3d 1cec 5a3b 8474 b93d a0d5 e73c
000003e0: 3472 b439 dd18 56bd 084e 94bd 4862 8c3c
000003f0: 8a89 78bd 1372 89bd 137f bbbc 404f 1e3d
0.006710359 0.030862033 0.018955763 0.049330648 -0.026516663 0.05586606 -0.005110051 0.05485322
-0.08175818 -0.042278785 0.069708124 0.043641154 0.021815581 -0.031656828 0.062313315 0.001086935
-0.00503461 0.02226807 -0.053446196 0.048176076 -0.043188278 0.046103198 0.08804142 0.03408597
-0.028916871 0.053485837 0.06164404 0.017588079 0.006563522 -0.020326737 0.04744906 0.050376944
-0.028210975 0.006108402 0.032968078 -0.007275843 0.057553187 0.05084862 -0.022950495 0.02038078
0.043918774 -0.031005606 0.060792595 0.039689735 0.023787877 -0.025628088 0.0417031 -0.055333413
0.017597672 0.045984603 0.0029664035 0.07200967 -0.016417418 -0.059188157 -0.038626786 0.042259697
0.062251315 -0.061973054 0.01840888 -0.03370884 0.05829883 0.0014553237 -0.010948528 -0.06850849
0.018567631 0.042356525 0.00074989244 0.041622218 0.0037104613 0.0029219734 0.013748542 -0.016498607
0.014704042 -0.05064023 0.0016546977 -0.05225107 0.05637354 0.032098085 0.055734824 -0.007981356
-0.0064187134 0.048905544 0.006444561 -0.024963148 0.053067673 -0.05257831 0.10251241 0.032857746
-0.021833248 0.01151893 0.07118205 -0.022587452 0.01781916 0.07362568 0.018492108 -0.03760546
0.009668209 -0.012557849 -0.037855357 -0.037510592 0.008946724 0.11665118 -0.0029517426 -0.05253465
-0.03183113 0.07006742 0.001256055 0.042810023 -0.042265944 -0.022722537 -0.013583651 -0.030881705
-0.03953684 -0.013419653 0.018615782 0.014027699 -0.015596056 0.046165913 0.043523073 0.067140274
-0.03529063 -0.03718428 0.06591173 0.04225874 -0.0620029 -0.043146435 0.006739881 -0.0074872654
-0.025949059 0.060685016 0.020799248 0.023352426 -0.023698596 -0.069073744 -0.019968932 -0.005582795
-0.03768806 -0.017268153 0.016711839 -0.037172522 0.03633763 -0.05312935 0.00086807925 0.039901853
-0.033987056 -0.027217364 0.063186355 0.03226313 0.08272384 -0.043874886 -0.022717591 0.0912206
0.036801282 -0.059923183 -0.027412288 -0.0040774234 -0.040158544 -0.022983126 -0.0040104147 0.0036574174
-0.040270407 -0.03454902 0.08650872 0.039532915 0.0034065917 0.02533924 0.09228875 0.0013739986
-0.030222686 -0.0769906 0.0445793 0.024541022 -0.05351271 0.013341464 -0.07810608 0.028440539
0.05143186 -0.026576353 -0.0564684 -0.008274426 0.050159864 -0.029701164 0.03393915 -0.015006428
-0.02017094 -0.0444851 0.017560203 -0.051544916 0.00016423245 0.024415081 0.01661505 0.034408286
0.066086635 0.030424148 0.060504615 0.09211265 -0.058791738 -0.0034041912 -0.06982731 -0.014173174
0.049882878 -0.08495164 -0.039475176 0.06669506 -0.028791254 0.026993366 0.06621657 -0.0034192516
-0.034508664 -0.0291226 -0.07278959 0.019963356 -0.041384682 -0.009461593 -0.0026614843 0.0012186335
0.031251624 -0.02723834 -0.027424071 -0.0073374216 -0.03428602 -0.06767542 0.008422378 0.0056488756
0.014972558 0.03016394 -0.0032471768 -0.031816762 0.040981185 0.03470614 -0.016851684 0.002793293
0.008337733 0.018924281 0.008039477 0.045025676 0.06723456 -0.05675157 0.021380184 -0.012200928
-0.0005918097 -0.020557797 -0.046545632 -0.04213075 0.05401276 0.0033404892 0.09055427 0.028300107
0.00034417363 -0.052269805 -0.07241446 0.017136708 -0.060678042 -0.06711211 -0.022887742 0.038649797

bias f4 [120]
00000000: 010d 7c3d 75dc 73bd d55a 52bc e1b5 58bc
00000010: 0ce2 48bd 5c5d d33c e7b1 29bd 599e f0bc
00000020: e929 993c 1cfd 8dbc ba99 203d de9c 183b
00000030: 9d78 163d 0072 9b3c 947d 2f3d 7bd8 8fbd
00000040: 52cf 74bd faee c33a 9f02 8abc 53bf 6fbc
00000050: fde5 d5bc 502a b53d d54c e63c f6bf 473c
00000060: 6afd 003b 88e0 0cbc 42fb a83c 537a 683d
00000070: 0405 173d 53dc 58bd 1d47 513d 53d3 62bd
00000080: b112 9f3d 6f85 603b e7c7 6c3d 3955 8dbc
00000090: c0e3 753d c70d fb3c 5bb2 c4bc 410c 8dbc
000000a0: 8453 19bd 8ee5 6c3c d4af 043d 7704 7b3d
000000b0: 6250 08bd 2769 633d 7470 0f3d fc19 de3c
000000c0: e676 32bd 78c3 5a3c 881e b7bc 9c95 25bd
000000d0: e0e2 d9bc fade 9f3d dd85 20bd 3549 14bd
000000e0: fcd2 c6bc 313e 183c b39b 7b3d de45 633d
000000f0: d682 cabb 607a d43c fad9 c23c 739b 4e3d
00000100: 1818 42bb 0515 dd3c cc3b 433d 6c7b d6bb
00000110: c25d 813c c1a7 02bd 17cd 143d 137e 38bd
00000120: 371f 073d 3576 b6bc f09e a6bc d996 fb3b
00000130: 8b78 52bd e220 77bd 5e0b acbc 302e 3dbd
00000140: 7b7b 3c3d 2b15 47bd 8260 773c 3cca 7dbd
00000150: 002e 0bbd b3ae a23d 5182 893d 61bf 223d
00000160: f724 eb3c c252 5d3b 945a 603d 2775 a93c
00000170: 67ad 203d c6f9 323d 66f5 073d f70d ff3c
00000180: acd2 2ebc 8fd1 8b3a a1ea 2abd 8036 e3bb
00000190: a76d d3bc c6a8 9e3c d3a5 933c ca5a d8bc
000001a0: 5e4c 373d 307c ac3b 3285 243d 037a 153d
000001b0: df7f 81bd 37cb 78bd 1767 093d f4d2 b4bb
000001c0: 8298 853d 5ca5 a63c a720 323d 5ca5 3e3d
000001d0: 2799 403d c6dc 4fbd 630c 34bd 48d9 583b
0.06153584 -0.059536416 -0.012839039 -0.013226957 -0.0490437 0.025801353 -0.041429427 -0.029372381
0.018696742 -0.017332606 0.039209105 0.002328686 0.03673612 0.018975258 0.04284437 -0.07023712
-0.05976803 0.001494854 -0.016846953 -0.014633018 -0.026110644 0.08845961 0.028112808 0.012191763
0.0019682297 -0.008598454 0.020627622 0.056757282 0.036870018 -0.052944493 0.05109321 -0.055377316
0.07767237 0.003425922 0.05780783 -0.017252551 0.060031652 0.030646218 -0.024010828 -0.017217757
-0.037433162 0.014459027 0.032394245 0.061283555 -0.033279784 0.055520203 0.035019353 0.027112
-0.04357042 0.013352267 -0.022353426 -0.04042588 -0.02659744 0.07806201 -0.039190162 -0.03620263
-0.024270527 0.009292171 0.061427783 0.055486552 -0.0061801476 0.02593726 0.02378558 0.050441217
-0.0029616412 0.026987562 0.04766445 -0.0065454748 0.015791778 -0.031898264 0.0363284 -0.04504211
0.032988753 -0.022273162 -0.02033946 0.0076778946 -0.05138449 -0.060334094 -0.021001514 -0.046186626
0.046016198 -0.04860417 0.015098693 -0.061960444 -0.033979416 0.079434775 0.06714309 0.039733294
0.02870415 0.0033771251 0.054773882 0.020685745 0.03922787 0.043695234 0.033193015 0.031134589
-0.010670345 0.0010667312 -0.041727666 -0.006933987 -0.025809122 0.019367587 0.018023407 -0.02641048
0.044750564 0.0052638277 0.040166087 0.036493313 -0.063232176 -0.060740676 0.03354558 -0.0055183116
0.06523229 0.020342521 0.04348817 0.046544418 0.047021057 -0.050747655 -0.043957125 0.0033088494

weight f4 [84, 120]
00000000: 00a7 803c 5f98 813d 1030 8fbd 9629 f9bc
00000010: b191 9dbd 969a 313d d7f5 9d3d 91af 3c3d
00000020: c776 4ebd a04f 123d 7fe0 8f3a 517d efbc
00000030: bed2 b0bc 187a 143d 61f1 3f3c 8ade ac3c
00000040: c23f 943c 601d 0c3a 7393 9fbd 1da7 f53b
00000050: 1535 8bbd 871f cb3d 39c1 ad3c d4e6 093d
00000060: 8fcd 20bd ac43 093d 3c02 943d 546b 783d
00000070: 70c6 eb3c 8069 cebc da91 c9bc 9cb2 08bc
00000080: 0aa6 68bd 2104 6abd 2fb8 0e3d 94a7 39bd
00000090: 49a6 3ebd b621 2cbd 5434 b63d fb08 9c3d
000000a0: 03ca 2bbd b559 0bbd e5ff fd3c 3515 a2bc
000000b0: 23d0 22bc 032d b93b f385 423d db26 71bd
000000c0: 98ed f4bc 7850 bdbc 5e44 9a3d 1141 8c3d
000000d0: 3559 293d f689 8b3c 86c2 ecbc 3040 bb3c
000000e0: 7647 6c3b d896 8d3d f831 eaba 554b 4bbd
000000f0: 43fb 12bc d6b2 9ebd c27b 91bd 854d 893d
00000100: b12c 1bbd 08d4 c6bc 8c42 843d dc99 1b3d
00000110: 9452 fcbc c576 f43a 03e3 9bbd 36b4 3f3d
00000120: 544c 52bd 052a a4bd b10d 233d 4b87 eebc
00000130: 9b2e ac3d 26fd 8ebc b42c a7bc 6a46 b7bd
00000140: 0b61 70bc 2033 60bd 2f37 213d c2e2 acbd
00000150: 245f 74bd bf80 3f3d 9e79 53bd db66 2abb
00000160: 609d 893d 1c35 9e3d 1538 483d 10ba 643c
00000170: 9e17 58bd 9429 cd3c e73e ac3c 2c92 2abd
00000180: 1d2b 9c3d 09fd bebd f424 07bc 2ce4 0c3d
00000190: 9206 443d c515 32bd 7f5e f53d 1f5d b53d
000001a0: 44b8 323b 1824 93bd 5fff d63c f6cb 8f3d
000001b0: 09ed 37bd 4399 573d f4b5 aabd 9889 9c3d
000001c0: ff6c 73bd 4448 8a3a 16bf 9fbd cad0 ebba
000001d0: 4a36 833d 1679 8cbd c069 f5ba e70e c0bd
000001e0: 1f66 863d 7790 e9bc 7dff 2bbd 99ec 6cbc
000001f0: 6e63 523d 3381 11bd c5d1 8abd 6adf 82bd
00000200: c742 18bc eaf1 9ebd d86f 91bd a433 80bd
00000210: b4c0 afbb f852 1cbd c99f 67bd 1f11 6e3d
00000220: db19 813d 9b0b 413d f807 6abd 10cc 0cbd
00000230: c097 1b3d 2759 983d 13cf 8abd 9566 d0bd
00000240: 0ae1 873b 3659 61bd 5654 21bd 157d b4bb
00000250: 80bd af3d 2e72 f63c 6def 04bd 7b14 853c
00000260: 077f 2a3d 37a5 72bd b3f8 653d e222 213d
00000270: 7b8c 88bd c9f4 7f3d 000e 913d 7967 eb3c
00000280: 21dd 00bd 3bab 93bd 6500 5bbd c815 76bd
00000290: aa1d 77bd 366a 223c 1f87 81bc b22f a63d
000002a0: 1e08 9cbd 267e abbb 009f 4e3d fdb2 99bd
000002b0: ae19 a5bd 7e99 6b3a cee3 8d3d 2445 94bd
000002c0: 0b59 953d 2024 87bd 4aa2 8dbd 0361 4f3d
000002d0: 3915 26bd 89da febc c99e b6bd 245f bc3d
000002e0: 9599 cf3c be84 a13d 413b 813d e44b 0a3d
000002f0: edf9 3a3d 0e37 f2bc 4c84 8d3d 4f29 03bd
00000300: 85ee 0d3d 93f4 84bd 66ac a23c 726c 933c
00000310: a546 603c a109 2e3d 14c5 3bbd 9e1a b4bd
00000320: caba 92bd 7ba1 993b 59f0 ab3d 43c4 a33d
00000330: c8ee 5ebd fade 063d e3aa 9c3b ce8f a33c
00000340: cded 13bd fe03 c8bc 1c7d 993d f01c 7a3d
00000350: adfa ab3d 29ac b0bd cad2 9a3d 1752 2ebc
00000360: 522e e9bc ae0e 14bd a936 4c3d cd58 3cbc
00000370: 5225 b6bd c66e 0dbc 8b5b 79bd 5206 80bd
00000380: 6e46 4a3d 6c53 90bd c23e bbbd 00ad 23bd
00000390: 649f 963d 46df b23d 08b9 b4bd f847 b8bb
000003a0: 20c4 88bd 166d 2fbc 8dfe 73bc 684e 1e3d
000003b0: a10b 9cbc 91b8 31bd 5ea9 9ebd 7577 ad3d
000003c0: ad2e 55bd 29c2 643d b127 e43c 76e5 163b
000003d0: 7249 0abd ce02 bc3d aa17 5abd 5540 603d
000003e0: 0ac1 113d 0b61 8ebd 8bbf bf3d f0dd 13bc
000003f0: 5e15 ef3d 1538 3a3d aa16 953d 4777 3ebd
0.015704632 0.063278906 -0.06991589 -0.030415338 -0.07693804 0.043360315 0.07712906 0.04606587
-0.050406244 0.035720468 0.0010976939 -0.02923456 -0.021584865 0.03624925 0.011715264 0.021102209
0.018096808 0.00053449534 -0.077917956 0.007496728 -0.06797234 0.09918123 0.0212103 0.0336674
-0.039258536 0.033511803 0.07226989 0.06064923 0.028781146 -0.02519679 -0.02460568 -0.008343365
-0.056798972 -0.057132844 0.03484362 -0.04532583 -0.0465453 -0.042024337 0.088966995 0.076189004
-0.0419407 -0.0340211 0.03100581 -0.019785503 -0.009937319 0.005651118 0.047491025 -0.058874946
-0.02989845 -0.02310966 0.07532571 0.06848348 0.04134484 0.017033558 -0.02890135 0.022857755
0.0036053336 0.06913537 -0.0017867675 -0.04963239 -0.008971038 -0.07748954 -0.07103683 0.06704239
-0.037884418 -0.024271026 0.06458005 0.03798853 -0.030801095 0.0018651119 -0.076116584 0.046802722
-0.051342323 -0.08015827 0.03980798 -0.029117247 0.08407327 -0.017454695 -0.020407058 -0.08948977
-0.014671574 -0.054736257 0.039359268 -0.08441688 -0.059661046 0.04675364 -0.051629655 -0.0026001248
0.0671947 0.077249736 0.04888161 0.013960376 -0.052756898 0.02504424 0.021026088 -0.041643307
0.07625411 -0.093256064 -0.008248556 0.03439729 0.04785783 -0.043477792 0.11980914 0.08855652
0.0027270475 -0.07184619 0.026244817 0.07021324 -0.04490379 0.052636396 -0.08335486 0.076434314
-0.05943012 0.0010550101 -0.078001186 -0.0017991301 0.06406839 -0.06859033 -0.0018723533 -0.093778424
0.06562447 -0.028511269 -0.0419917 -0.014460706 0.051364355 -0.035523605 -0.067782916 -0.06390269
-0.009293265 -0.07760985 -0.071014106 -0.0625985 -0.005363548 -0.038165063 -0.056548867 0.058121797
0.0630376 0.04713021 -0.057136506 -0.034374297 0.037986517 0.074388795 -0.067777775 -0.10175816
0.0041467 -0.05501672 -0.03938707 -0.005508075 0.08581066 0.030083742 -0.032454897 0.016245117
0.04162505 -0.059239592 0.05614538 0.039339907 -0.066674195 0.062489305 0.070827484 0.028735863
-0.031460885 -0.07210394 -0.053467173 -0.060079366 -0.060331024 0.009913018 -0.015811501 0.08114566
-0.07618736 -0.005233544 0.050444603 -0.075048424 -0.08061539 0.00089874107 0.06928216 -0.0723975
0.07292374 -0.06598687 -0.0691572 0.050629627 -0.040547583 -0.031110065 -0.089170046 0.09197834
0.025341788 0.07886647 0.0631013 0.03376378 0.045648504 -0.029567268 0.06909999 -0.032021817
0.034651298 -0.06491961 0.019857597 0.017996047 0.013688718 0.04248965 -0.045842245 -0.08794139
-0.071645334 0.0046884394 0.08395452 0.07996418 -0.05442694 0.03292749 0.0047811135 0.019966032
-0.036115456 -0.024415966 0.07494566 0.061062753 0.08397422 -0.08626587 0.07559736 -0.010639689
-0.02846447 -0.036146812 0.049856815 -0.011495781 -0.08893837 -0.0086323675 -0.060878318 -0.062512055
0.049383573 -0.070471615 -0.091428295 -0.039959908 0.0735462 0.08733992 -0.088243544 -0.0056238137
-0.06678033 -0.01070716 -0.014892233 0.038648993 -0.019048514 -0.043388907 -0.07747148 0.0847005
-0.052046467 0.055849228 0.027850958 0.0023024953 -0.03376145 0.091802225 -0.053245224 0.05474885
0.035584487 -0.06952103 0.09362706 -0.009025082 0.11673997 0.04546364 0.072797135 -0.04650047

bias f4 [84]
00000000: 6390 b33b 4eae 81bd 3316 c6bb dbaf 82bd
00000010: 0401 ae3d a224 66bb 8182 e2bc 7d8d 32bd
00000020: c461 7f3d b970 533c 9b1a cf3d 7ec0 bbbd
00000030: b703 92bd bb57 e5bc b04f 8f3d c1ec 953c
00000040: 7b8b e13c fb93 343b 9cb7 083d d879 b53b
00000050: 6089 fbbc 65cb 98bd 5b33 9b3d 42fc c5bc
00000060: 4a2f a33d 2717 cbbb a779 10bd 7162 0b3d
00000070: ede6 1cbd 2f4c 82bd 1bbf 613d 09f5 d23d
00000080: 9612 053e 492c f23d 1a6f af3d d420 0dbd
00000090: 2cff c2bd 4dda cbbd 501c 943d 8f15 3c3d
000000a0: 0976 f33d 5306 8abd eacc 97bd 61c8 c23d
000000b0: ee5b 45bd 3aa4 3d3b 35d2 9e3d 8752 4abc
000000c0: 9af0 d43d b69e 2dbc a00a 8fbd 75cb 483c
000000d0: 5c76 9739 746b 823d 6afd 64bb d853 9fbd
000000e0: 8e61 62bc 856d 01bc 44d6 f9bc a1e4 603d
000000f0: 0dd2 9e3c d447 04bd f8fc 5c3d bd34 3e3d
00000100: 86f2 893d 0811 213d 29d4 1e3d 045c e03b
00000110: 6ee6 283c 773f 87bd 44d7 a73d 24f4 72bd
00000120: f457 51bd 9921 7e3d e3ef b63b 9683 6cbd
00000130: bd41 11bd 5737 a9bc 6acc d6bc 6dd7 8fbb
00000140: 3795 6dbc cc5b 18bd 9c8f bc3d b288 bcbc
0.0054798587 -0.06332074 -0.006045127 -0.06381198 0.084962875 -0.003511705 -0.02765012 -0.043591965
0.062349096 0.012905293 0.101124965 -0.09167574 -0.07129615 -0.027995935 0.06997621 0.01830137
0.02753233 0.0027554024 0.03337823 0.0055382065 -0.030705154 -0.074606694 0.07578155 -0.024168137
0.07968004 -0.0061978283 -0.035272267 0.034029428 -0.038306165 -0.06362187 0.055113893 0.10300643
0.12995371 0.11824853 0.08566113 -0.034455135 -0.095213264 -0.09953747 0.07231963 0.045918997
0.11887748 -0.067394875 -0.07412131 0.095108755 -0.048183374 0.0028936998 0.077549376 -0.012348778
0.103974536 -0.010596922 -0.069844484 0.012255539 0.0002888915 0.06368151 -0.0034941086 -0.07779664
-0.013817204 -0.007899647 -0.030497678 0.054905538 0.01938727 -0.032295063 0.053952187 0.046437014
0.06735711 0.039322883 0.03877655 0.0068469066 0.010308845 -0.06603902 0.081953555 -0.059314862
-0.05110927 0.06204376 0.005582796 -0.057742678 -0.035463084 -0.02065627 -0.02622052 -0.0043896944
-0.014500908 -0.03719692 0.09207079 -0.0230144

weight f4 [10, 84]
00000000: aa7c a3bd b5c6 453d 4e95 49bd a3f2 b03d
00000010: 13e2 553c fd8c e13d eb64 983d 9daf f6bd
00000020: 6e96 ecbc 7b5f b43d 79d7 33be 0d82 bc3d
00000030: 8362 52be fcf3 9a3d ae0f 09be a4c2 0cbe
00000040: d5d7 d03a ec66 973d 7ea7 b0bd 4492 cfbd
00000050: 4f91 00be 8094 e6bc a66e 733e ea07 d2bc
00000060: 4e96 bcbd fffb 9e3c b5bd 84bd 46cd 183c
00000070: e359 593c 4b43 b3bd b695 d13d 7ce3 a5bd
00000080: 967e 7c3d 2c9d 13be 501e 2dbe ed24 ac3d
00000090: f1d7 e63d a982 883d dc02 52bd 9f44 2fbe
000000a0: 871a 4cbe b16d a23d 6bef d43d 0bc7 1e3d
000000b0: ee61 f13d 19ab ca3a 27a2 77bd ab7a 6f3e
000000c0: 8dbb 3fbe 8db2 bf3d 8e44 98bd a03e 313d
000000d0: dfb6 0a3c c444 1c3e ca4d 3dbe 5b33 5c3d
000000e0: 82d5 f93d 8979 6c3d 15fe f33d 8171 9dbd
000000f0: a380 103e 6772 5c3d 2f2b 60bd 72a7 9dbb
00000100: 970c 1fbe 360a 7abe b15f 89be 5747 e4bc
00000110: 62d3 babc a0ef 05be dc34 0d3e 004f 22bc
00000120: 27e2 66be 8527 263e efdc ee3d c843 db3d
00000130: 7c3c 88bd 8b01 003e e8ce 6d3d 973e 433e
00000140: cd56 e33d 56ca 8fbd f20d 4b3d 2917 4ebd
00000150: bb57 ffbd 376d e53d 5e87 24bb 38eb 1fbe
00000160: a4ee 5f3e f895 49bd d493 e4bd 3896 8cbd
00000170: 3b88 683c 86fc 683e cf05 6b3e 4390 863d
00000180: 31d9 eebd f552 0fbd 6804 acbc 397c 8bbd
00000190: afd2 11bc dcaf b13c 049e 6abe 6836 c03d
000001a0: 33b8 acbd 4ee4 60bd 46d4 85bd b292 bbbd
000001b0: 1a26 8e3c a7e1 aebc 40a6 fe3d 6140 bdbc
000001c0: a87e a9bd 7d9b 98bb 6c01 80be 7dec 013e
000001d0: bb08 9a3e 805f 3c3e d25f eebd ce3b c53b
000001e0: 7aa8 a83d 6254 b839 9028 da39 cbc1 633e
000001f0: d286 693d ee8f 833d 5516 70bd 1aef 0f3e
00000200: 801a b7bd 0b28 7e3e d02b 843e b872 a3bd
00000210: 674e 23bd 228c fe3d f42c 603d 0249 a6bb
00000220: e0e4 c5bd 6d1c ff3d 8716 923d 1063 c0bd
00000230: 54a8 efbd e736 7c3d d89f 1cbe e01a 23be
00000240: 7a80 1bbe ea8a 503d 3f09 373c bba7 1fbe
00000250: 8465 1f3e 4f95 cabd d451 4bbe 9276 45bc
00000260: c9cf 06be d115 5dbd 203a e33d a1e4 74bc
00000270: 8a00 e7bd 6419 34be e362 07be 3b02 11bd
00000280: 051d c8bd f220 e2bc 96c1 2b3e a279 02bd
00000290: f21b 6dbe 3e5d ddbd ffc6 efbd 20f0 263d
000002a0: db6a 90bd fbb5 80bc 0f0d 263e da15 74bd
000002b0: 91fd 13be 95cf 063d 2cfe 6fbb 5fd5 41bd
000002c0: 572e 553d d07d cfbd 4ad6 f3bd c968 ae3d
000002d0: deb5 1e3d 395d 393c f135 253d 88a1 643d
000002e0: dbda 08bd 08fa 34bd af7b 8bbd 1db5 81bd
000002f0: 22c7 923d eca6 453e 2178 573d b599 2c3d
00000300: d276 fcbd 2ae4 87bd d7f3 f5bc 0e04 123e
00000310: 9a2b 92bd ad47 f9bc 7eff 3ebc 2c13 253e
00000320: 8c15 c3bd 95f9 893d 16a6 22be 17fb 12bd
00000330: e390 953d 4a54 9bbd 2af2 883d 7900 ca3d
00000340: 4726 53bd 1d99 02be c678 fc3c f76e 99bd
00000350: 638f 4b3e 52ec f1bc e1b0 33bd 4e0e f3bd
00000360: 4067 d3bc b8a5 c33d a097 17bd 7114 63bd
00000370: d314 84bd 49af d03d 1091 113e 956e e43d
00000380: 5f68 3bbe 8cba 99bd b06e 9dbc f3f1 2dbd
00000390: b9d0 01be 77d6 d23d 3cfc acbd b39d c93c
000003a0: fad8 2b3b 32ce e3bd d19c 233e ce73 c7bc
000003b0: 422b 4fbe 1655 b5bd 685d 273e acbd b3bd
000003c0: 5a53 26bd d4b6 153e c728 3c3e 838e 82bd
000003d0: 390c b43c 582a b6bd c4f8 c0bd ceff 943d
000003e0: e04c 87be 7674 253e 3753 673d 81d6 abbd
000003f0: f25f 413c 3ae5 6a3d 10b6 85bd d963 df3d
-0.07982762 0.048285205 -0.049214654 0.08640029 0.013054389 0.110132195 0.074411236 -0.12045214
-0.028880324 0.08807274 -0.17562665 0.09204493 -0.20545392 0.075660676 -0.13384888 -0.13746125
0.0015933464 0.07392678 -0.086256966 -0.1013532 -0.12555431 -0.028146982 0.23772678 -0.02563854
-0.09208356 0.01940727 -0.06481496 0.009326285 0.01326606 -0.087530695 0.10233633 -0.0810003
0.06164416 -0.14415425 -0.16906095 0.084054805 0.11271656 0.066655464 -0.05127226 -0.1711602
-0.19931994 0.07931078 0.10397228 0.03876404 0.11786257 0.0015462368 -0.060457375 0.23386638
-0.18723889 0.09360228 -0.07434951 0.043272614 0.008466451 0.15260607 -0.18486705 0.053759914
0.121989265 0.057733092 0.11913697 -0.07687665 0.14111571 0.05382004 -0.054728683 -0.004811221
-0.15532146 -0.24417958 -0.2683082 -0.027866049 -0.022805873 -0.13079691 0.13789696 -0.00990653
-0.22547208 0.16226013 0.116632335 0.107062876 -0.066521615 0.12500589 0.05805865 0.19066845
0.1110054 -0.070210144 0.049573846 -0.050315056 -0.12467905 0.11202472 -0.00251051 -0.15617073
0.21868378 -0.049215287 -0.111610085 -0.068645895 0.014192636 0.2275258 0.22951435 0.065704845
-0.1166252 -0.034991223 -0.020998195 -0.06810803 -0.008900329 0.021690302 -0.2291184 0.09385377
-0.08433571 -0.05490523 -0.065346286 -0.09158839 0.017352153 -0.021347834 0.124340534 -0.023101987
-0.08276111 -0.0046572075 -0.25001085 0.1268787 0.30084786 0.18395805 -0.1163937 0.006019092
0.08235259 0.00035158085 0.00041610422 0.22241895 0.05701334 0.06423937 -0.058615047 0.14056054
-0.08940601 0.24819963 0.25814676 -0.07980865 -0.039869692 0.12429072 0.05473037 -0.005074621
-0.09662795 0.12456594 0.07133203 -0.09393895 -0.11702028 0.061575796 -0.1529535 -0.15928221
-0.15185729 0.05091373 0.011171638 -0.15591328 0.15566069 -0.098917596 -0.19855434 -0.012052195
-0.13165201 -0.053975884 0.11095071 -0.0149470875 -0.112794 -0.17587811 -0.13221316 -0.035402518
-0.0977116 -0.0276036 0.16773066 -0.03185428 -0.23155192 -0.108088 -0.11707877 0.040756345
-0.07051631 -0.015711775 0.16215919 -0.05959115 -0.14452197 0.03291281 -0.0036620004 -0.047322627
0.052046146 -0.10131419 -0.11906107 0.0851608 0.03874766 0.01131373 0.040334646 0.05581811
-0.03341184 -0.04418376 -0.068107 -0.06333373 0.07166888 0.19301957 0.0526048 0.042138774
-0.12327351 -0.06635316 -0.030023498 0.14259359 -0.071372226 -0.030429685 -0.011657594 0.16120595
-0.09525594 0.06737057 -0.1588367 -0.03588399 0.073030256 -0.07584436 0.06686814 0.098633714
-0.051550176 -0.1275372 0.030819308 -0.07491868 0.19878916 -0.029531632 -0.043869857 -0.11867963
-0.02580607 0.09553093 -0.037009835 -0.055439416 -0.064492844 0.10189683 0.14215493 0.11153904
-0.18301533 -0.07506284 -0.019217819 -0.04246707 -0.12677278 0.10294812 -0.084465474 0.02461133
0.0026221857 -0.11123313 0.1597779 -0.024347212 -0.20231345 -0.088541195 0.16344225 -0.087764114
-0.040606834 0.14620525 0.1837493 -0.06374838 0.021978484 -0.08894795 -0.09422448 0.07275353
-0.26425838 0.16157708 0.056475844 -0.08390523 0.01180266 0.057347514 -0.06528866 0.10907716

bias f4 [10]
00000000: 4bcc d0bd f899 9c3e 9f30 a5bd bdf2 1abd
00000010: a6fb cbbd 3460 33bd a26f f8bd d8ef b23b
00000020: 89ae 423b a516 a5bd
-0.10195216 0.3058622 -0.08065914 -0.03782915 -0.099601075 -0.04379292 -0.12130667 0.0054607205
0.0029706082 -0.0806096
